node {
  name: "x_pl"
  op: "Placeholder"
  attr {
    key: "dtype"
    value {
      type: DT_FLOAT
    }
  }
  attr {
    key: "shape"
    value {
      shape {
        dim {
          size: 1
        }
        dim {
          size: -1
        }
        dim {
          size: -1
        }
        dim {
          size: 3
        }
      }
    }
  }
}
node {
  name: "y_pl"
  op: "Placeholder"
  attr {
    key: "dtype"
    value {
      type: DT_INT32
    }
  }
  attr {
    key: "shape"
    value {
      shape {
        dim {
          size: 1
        }
        dim {
          size: -1
        }
        dim {
          size: -1
        }
      }
    }
  }
}
node {
  name: "test_model/model/images/resize_images/size"
  op: "Const"
  attr {
    key: "dtype"
    value {
      type: DT_INT32
    }
  }
  attr {
    key: "value"
    value {
      tensor {
        dtype: DT_INT32
        tensor_shape {
          dim {
            size: 2
          }
        }
        tensor_content: "\000\001\000\000\000\002\000\000"
      }
    }
  }
}
node {
  name: "test_model/model/images/resize_images/ResizeBilinear"
  op: "ResizeBilinear"
  input: "x_pl"
  input: "test_model/model/images/resize_images/size"
  attr {
    key: "T"
    value {
      type: DT_FLOAT
    }
  }
  attr {
    key: "align_corners"
    value {
      b: false
    }
  }
}
node {
  name: "test_model/model/images/transpose/perm"
  op: "Const"
  attr {
    key: "dtype"
    value {
      type: DT_INT32
    }
  }
  attr {
    key: "value"
    value {
      tensor {
        dtype: DT_INT32
        tensor_shape {
          dim {
            size: 4
          }
        }
        tensor_content: "\000\000\000\000\003\000\000\000\001\000\000\000\002\000\000\000"
      }
    }
  }
}
node {
  name: "test_model/model/images/transpose"
  op: "Transpose"
  input: "test_model/model/images/resize_images/ResizeBilinear"
  input: "test_model/model/images/transpose/perm"
  attr {
    key: "T"
    value {
      type: DT_FLOAT
    }
  }
  attr {
    key: "Tperm"
    value {
      type: DT_INT32
    }
  }
}
node {
  name: "test_model/model/images/sub/y"
  op: "Const"
  attr {
    key: "dtype"
    value {
      type: DT_FLOAT
    }
  }
  attr {
    key: "value"
    value {
      tensor {
        dtype: DT_FLOAT
        tensor_shape {
        }
        float_val: 128.0
      }
    }
  }
}
node {
  name: "test_model/model/images/sub"
  op: "Sub"
  input: "test_model/model/images/transpose"
  input: "test_model/model/images/sub/y"
  attr {
    key: "T"
    value {
      type: DT_FLOAT
    }
  }
}
node {
  name: "test_model/model/images/truediv/y"
  op: "Const"
  attr {
    key: "dtype"
    value {
      type: DT_FLOAT
    }
  }
  attr {
    key: "value"
    value {
      tensor {
        dtype: DT_FLOAT
        tensor_shape {
        }
        float_val: 128.0
      }
    }
  }
}
node {
  name: "test_model/model/images/truediv"
  op: "RealDiv"
  input: "test_model/model/images/sub"
  input: "test_model/model/images/truediv/y"
  attr {
    key: "T"
    value {
      type: DT_FLOAT
    }
  }
}
node {
  name: "model/encoder/downsample1/downsample/conv/weights/w/Initializer/truncated_normal/shape"
  op: "Const"
  attr {
    key: "_class"
    value {
      list {
        s: "loc:@model/encoder/downsample1/downsample/conv/weights/w"
      }
    }
  }
  attr {
    key: "dtype"
    value {
      type: DT_INT32
    }
  }
  attr {
    key: "value"
    value {
      tensor {
        dtype: DT_INT32
        tensor_shape {
          dim {
            size: 4
          }
        }
        tensor_content: "\005\000\000\000\005\000\000\000\003\000\000\000\r\000\000\000"
      }
    }
  }
}
node {
  name: "model/encoder/downsample1/downsample/conv/weights/w/Initializer/truncated_normal/mean"
  op: "Const"
  attr {
    key: "_class"
    value {
      list {
        s: "loc:@model/encoder/downsample1/downsample/conv/weights/w"
      }
    }
  }
  attr {
    key: "dtype"
    value {
      type: DT_FLOAT
    }
  }
  attr {
    key: "value"
    value {
      tensor {
        dtype: DT_FLOAT
        tensor_shape {
        }
        float_val: 0.0
      }
    }
  }
}
node {
  name: "model/encoder/downsample1/downsample/conv/weights/w/Initializer/truncated_normal/stddev"
  op: "Const"
  attr {
    key: "_class"
    value {
      list {
        s: "loc:@model/encoder/downsample1/downsample/conv/weights/w"
      }
    }
  }
  attr {
    key: "dtype"
    value {
      type: DT_FLOAT
    }
  }
  attr {
    key: "value"
    value {
      tensor {
        dtype: DT_FLOAT
        tensor_shape {
        }
        float_val: 0.1154700517654419
      }
    }
  }
}
node {
  name: "model/encoder/downsample1/downsample/conv/weights/w/Initializer/truncated_normal/TruncatedNormal"
  op: "TruncatedNormal"
  input: "model/encoder/downsample1/downsample/conv/weights/w/Initializer/truncated_normal/shape"
  attr {
    key: "T"
    value {
      type: DT_INT32
    }
  }
  attr {
    key: "_class"
    value {
      list {
        s: "loc:@model/encoder/downsample1/downsample/conv/weights/w"
      }
    }
  }
  attr {
    key: "dtype"
    value {
      type: DT_FLOAT
    }
  }
  attr {
    key: "seed"
    value {
      i: 0
    }
  }
  attr {
    key: "seed2"
    value {
      i: 0
    }
  }
}
node {
  name: "model/encoder/downsample1/downsample/conv/weights/w/Initializer/truncated_normal/mul"
  op: "Mul"
  input: "model/encoder/downsample1/downsample/conv/weights/w/Initializer/truncated_normal/TruncatedNormal"
  input: "model/encoder/downsample1/downsample/conv/weights/w/Initializer/truncated_normal/stddev"
  attr {
    key: "T"
    value {
      type: DT_FLOAT
    }
  }
  attr {
    key: "_class"
    value {
      list {
        s: "loc:@model/encoder/downsample1/downsample/conv/weights/w"
      }
    }
  }
}
node {
  name: "model/encoder/downsample1/downsample/conv/weights/w/Initializer/truncated_normal"
  op: "Add"
  input: "model/encoder/downsample1/downsample/conv/weights/w/Initializer/truncated_normal/mul"
  input: "model/encoder/downsample1/downsample/conv/weights/w/Initializer/truncated_normal/mean"
  attr {
    key: "T"
    value {
      type: DT_FLOAT
    }
  }
  attr {
    key: "_class"
    value {
      list {
        s: "loc:@model/encoder/downsample1/downsample/conv/weights/w"
      }
    }
  }
}
node {
  name: "model/encoder/downsample1/downsample/conv/weights/w"
  op: "VariableV2"
  attr {
    key: "_class"
    value {
      list {
        s: "loc:@model/encoder/downsample1/downsample/conv/weights/w"
      }
    }
  }
  attr {
    key: "container"
    value {
      s: ""
    }
  }
  attr {
    key: "dtype"
    value {
      type: DT_FLOAT
    }
  }
  attr {
    key: "shape"
    value {
      shape {
        dim {
          size: 5
        }
        dim {
          size: 5
        }
        dim {
          size: 3
        }
        dim {
          size: 13
        }
      }
    }
  }
  attr {
    key: "shared_name"
    value {
      s: ""
    }
  }
}
node {
  name: "model/encoder/downsample1/downsample/conv/weights/w/Assign"
  op: "Assign"
  input: "model/encoder/downsample1/downsample/conv/weights/w"
  input: "model/encoder/downsample1/downsample/conv/weights/w/Initializer/truncated_normal"
  attr {
    key: "T"
    value {
      type: DT_FLOAT
    }
  }
  attr {
    key: "_class"
    value {
      list {
        s: "loc:@model/encoder/downsample1/downsample/conv/weights/w"
      }
    }
  }
  attr {
    key: "use_locking"
    value {
      b: true
    }
  }
  attr {
    key: "validate_shape"
    value {
      b: true
    }
  }
}
node {
  name: "model/encoder/downsample1/downsample/conv/weights/w/read"
  op: "Identity"
  input: "model/encoder/downsample1/downsample/conv/weights/w"
  attr {
    key: "T"
    value {
      type: DT_FLOAT
    }
  }
  attr {
    key: "_class"
    value {
      list {
        s: "loc:@model/encoder/downsample1/downsample/conv/weights/w"
      }
    }
  }
}
node {
  name: "test_model/model/encoder/downsample1/downsample/conv/convolution/Conv2D"
  op: "Conv2D"
  input: "test_model/model/images/truediv"
  input: "model/encoder/downsample1/downsample/conv/weights/w/read"
  attr {
    key: "T"
    value {
      type: DT_FLOAT
    }
  }
  attr {
    key: "data_format"
    value {
      s: "NCHW"
    }
  }
  attr {
    key: "dilations"
    value {
      list {
        i: 1
        i: 1
        i: 1
        i: 1
      }
    }
  }
  attr {
    key: "padding"
    value {
      s: "SAME"
    }
  }
  attr {
    key: "strides"
    value {
      list {
        i: 1
        i: 1
        i: 2
        i: 2
      }
    }
  }
  attr {
    key: "use_cudnn_on_gpu"
    value {
      b: true
    }
  }
}
node {
  name: "model/encoder/downsample1/downsample/conv/batchnorm/BatchNorm/gamma/Initializer/ones/shape_as_tensor"
  op: "Const"
  attr {
    key: "_class"
    value {
      list {
        s: "loc:@model/encoder/downsample1/downsample/conv/batchnorm/BatchNorm/gamma"
      }
    }
  }
  attr {
    key: "dtype"
    value {
      type: DT_INT32
    }
  }
  attr {
    key: "value"
    value {
      tensor {
        dtype: DT_INT32
        tensor_shape {
          dim {
            size: 1
          }
        }
        int_val: 13
      }
    }
  }
}
node {
  name: "model/encoder/downsample1/downsample/conv/batchnorm/BatchNorm/gamma/Initializer/ones/Const"
  op: "Const"
  attr {
    key: "_class"
    value {
      list {
        s: "loc:@model/encoder/downsample1/downsample/conv/batchnorm/BatchNorm/gamma"
      }
    }
  }
  attr {
    key: "dtype"
    value {
      type: DT_FLOAT
    }
  }
  attr {
    key: "value"
    value {
      tensor {
        dtype: DT_FLOAT
        tensor_shape {
        }
        float_val: 1.0
      }
    }
  }
}
node {
  name: "model/encoder/downsample1/downsample/conv/batchnorm/BatchNorm/gamma/Initializer/ones"
  op: "Fill"
  input: "model/encoder/downsample1/downsample/conv/batchnorm/BatchNorm/gamma/Initializer/ones/shape_as_tensor"
  input: "model/encoder/downsample1/downsample/conv/batchnorm/BatchNorm/gamma/Initializer/ones/Const"
  attr {
    key: "T"
    value {
      type: DT_FLOAT
    }
  }
  attr {
    key: "_class"
    value {
      list {
        s: "loc:@model/encoder/downsample1/downsample/conv/batchnorm/BatchNorm/gamma"
      }
    }
  }
  attr {
    key: "index_type"
    value {
      type: DT_INT32
    }
  }
}
node {
  name: "model/encoder/downsample1/downsample/conv/batchnorm/BatchNorm/gamma"
  op: "VariableV2"
  attr {
    key: "_class"
    value {
      list {
        s: "loc:@model/encoder/downsample1/downsample/conv/batchnorm/BatchNorm/gamma"
      }
    }
  }
  attr {
    key: "container"
    value {
      s: ""
    }
  }
  attr {
    key: "dtype"
    value {
      type: DT_FLOAT
    }
  }
  attr {
    key: "shape"
    value {
      shape {
        dim {
          size: 13
        }
      }
    }
  }
  attr {
    key: "shared_name"
    value {
      s: ""
    }
  }
}
node {
  name: "model/encoder/downsample1/downsample/conv/batchnorm/BatchNorm/gamma/Assign"
  op: "Assign"
  input: "model/encoder/downsample1/downsample/conv/batchnorm/BatchNorm/gamma"
  input: "model/encoder/downsample1/downsample/conv/batchnorm/BatchNorm/gamma/Initializer/ones"
  attr {
    key: "T"
    value {
      type: DT_FLOAT
    }
  }
  attr {
    key: "_class"
    value {
      list {
        s: "loc:@model/encoder/downsample1/downsample/conv/batchnorm/BatchNorm/gamma"
      }
    }
  }
  attr {
    key: "use_locking"
    value {
      b: true
    }
  }
  attr {
    key: "validate_shape"
    value {
      b: true
    }
  }
}
node {
  name: "model/encoder/downsample1/downsample/conv/batchnorm/BatchNorm/gamma/read"
  op: "Identity"
  input: "model/encoder/downsample1/downsample/conv/batchnorm/BatchNorm/gamma"
  attr {
    key: "T"
    value {
      type: DT_FLOAT
    }
  }
  attr {
    key: "_class"
    value {
      list {
        s: "loc:@model/encoder/downsample1/downsample/conv/batchnorm/BatchNorm/gamma"
      }
    }
  }
}
node {
  name: "model/encoder/downsample1/downsample/conv/batchnorm/BatchNorm/beta/Initializer/zeros/shape_as_tensor"
  op: "Const"
  attr {
    key: "_class"
    value {
      list {
        s: "loc:@model/encoder/downsample1/downsample/conv/batchnorm/BatchNorm/beta"
      }
    }
  }
  attr {
    key: "dtype"
    value {
      type: DT_INT32
    }
  }
  attr {
    key: "value"
    value {
      tensor {
        dtype: DT_INT32
        tensor_shape {
          dim {
            size: 1
          }
        }
        int_val: 13
      }
    }
  }
}
node {
  name: "model/encoder/downsample1/downsample/conv/batchnorm/BatchNorm/beta/Initializer/zeros/Const"
  op: "Const"
  attr {
    key: "_class"
    value {
      list {
        s: "loc:@model/encoder/downsample1/downsample/conv/batchnorm/BatchNorm/beta"
      }
    }
  }
  attr {
    key: "dtype"
    value {
      type: DT_FLOAT
    }
  }
  attr {
    key: "value"
    value {
      tensor {
        dtype: DT_FLOAT
        tensor_shape {
        }
        float_val: 0.0
      }
    }
  }
}
node {
  name: "model/encoder/downsample1/downsample/conv/batchnorm/BatchNorm/beta/Initializer/zeros"
  op: "Fill"
  input: "model/encoder/downsample1/downsample/conv/batchnorm/BatchNorm/beta/Initializer/zeros/shape_as_tensor"
  input: "model/encoder/downsample1/downsample/conv/batchnorm/BatchNorm/beta/Initializer/zeros/Const"
  attr {
    key: "T"
    value {
      type: DT_FLOAT
    }
  }
  attr {
    key: "_class"
    value {
      list {
        s: "loc:@model/encoder/downsample1/downsample/conv/batchnorm/BatchNorm/beta"
      }
    }
  }
  attr {
    key: "index_type"
    value {
      type: DT_INT32
    }
  }
}
node {
  name: "model/encoder/downsample1/downsample/conv/batchnorm/BatchNorm/beta"
  op: "VariableV2"
  attr {
    key: "_class"
    value {
      list {
        s: "loc:@model/encoder/downsample1/downsample/conv/batchnorm/BatchNorm/beta"
      }
    }
  }
  attr {
    key: "container"
    value {
      s: ""
    }
  }
  attr {
    key: "dtype"
    value {
      type: DT_FLOAT
    }
  }
  attr {
    key: "shape"
    value {
      shape {
        dim {
          size: 13
        }
      }
    }
  }
  attr {
    key: "shared_name"
    value {
      s: ""
    }
  }
}
node {
  name: "model/encoder/downsample1/downsample/conv/batchnorm/BatchNorm/beta/Assign"
  op: "Assign"
  input: "model/encoder/downsample1/downsample/conv/batchnorm/BatchNorm/beta"
  input: "model/encoder/downsample1/downsample/conv/batchnorm/BatchNorm/beta/Initializer/zeros"
  attr {
    key: "T"
    value {
      type: DT_FLOAT
    }
  }
  attr {
    key: "_class"
    value {
      list {
        s: "loc:@model/encoder/downsample1/downsample/conv/batchnorm/BatchNorm/beta"
      }
    }
  }
  attr {
    key: "use_locking"
    value {
      b: true
    }
  }
  attr {
    key: "validate_shape"
    value {
      b: true
    }
  }
}
node {
  name: "model/encoder/downsample1/downsample/conv/batchnorm/BatchNorm/beta/read"
  op: "Identity"
  input: "model/encoder/downsample1/downsample/conv/batchnorm/BatchNorm/beta"
  attr {
    key: "T"
    value {
      type: DT_FLOAT
    }
  }
  attr {
    key: "_class"
    value {
      list {
        s: "loc:@model/encoder/downsample1/downsample/conv/batchnorm/BatchNorm/beta"
      }
    }
  }
}
node {
  name: "model/encoder/downsample1/downsample/conv/batchnorm/BatchNorm/moving_mean/Initializer/zeros/shape_as_tensor"
  op: "Const"
  attr {
    key: "_class"
    value {
      list {
        s: "loc:@model/encoder/downsample1/downsample/conv/batchnorm/BatchNorm/moving_mean"
      }
    }
  }
  attr {
    key: "dtype"
    value {
      type: DT_INT32
    }
  }
  attr {
    key: "value"
    value {
      tensor {
        dtype: DT_INT32
        tensor_shape {
          dim {
            size: 1
          }
        }
        int_val: 13
      }
    }
  }
}
node {
  name: "model/encoder/downsample1/downsample/conv/batchnorm/BatchNorm/moving_mean/Initializer/zeros/Const"
  op: "Const"
  attr {
    key: "_class"
    value {
      list {
        s: "loc:@model/encoder/downsample1/downsample/conv/batchnorm/BatchNorm/moving_mean"
      }
    }
  }
  attr {
    key: "dtype"
    value {
      type: DT_FLOAT
    }
  }
  attr {
    key: "value"
    value {
      tensor {
        dtype: DT_FLOAT
        tensor_shape {
        }
        float_val: 0.0
      }
    }
  }
}
node {
  name: "model/encoder/downsample1/downsample/conv/batchnorm/BatchNorm/moving_mean/Initializer/zeros"
  op: "Fill"
  input: "model/encoder/downsample1/downsample/conv/batchnorm/BatchNorm/moving_mean/Initializer/zeros/shape_as_tensor"
  input: "model/encoder/downsample1/downsample/conv/batchnorm/BatchNorm/moving_mean/Initializer/zeros/Const"
  attr {
    key: "T"
    value {
      type: DT_FLOAT
    }
  }
  attr {
    key: "_class"
    value {
      list {
        s: "loc:@model/encoder/downsample1/downsample/conv/batchnorm/BatchNorm/moving_mean"
      }
    }
  }
  attr {
    key: "index_type"
    value {
      type: DT_INT32
    }
  }
}
node {
  name: "model/encoder/downsample1/downsample/conv/batchnorm/BatchNorm/moving_mean"
  op: "VariableV2"
  attr {
    key: "_class"
    value {
      list {
        s: "loc:@model/encoder/downsample1/downsample/conv/batchnorm/BatchNorm/moving_mean"
      }
    }
  }
  attr {
    key: "container"
    value {
      s: ""
    }
  }
  attr {
    key: "dtype"
    value {
      type: DT_FLOAT
    }
  }
  attr {
    key: "shape"
    value {
      shape {
        dim {
          size: 13
        }
      }
    }
  }
  attr {
    key: "shared_name"
    value {
      s: ""
    }
  }
}
node {
  name: "model/encoder/downsample1/downsample/conv/batchnorm/BatchNorm/moving_mean/Assign"
  op: "Assign"
  input: "model/encoder/downsample1/downsample/conv/batchnorm/BatchNorm/moving_mean"
  input: "model/encoder/downsample1/downsample/conv/batchnorm/BatchNorm/moving_mean/Initializer/zeros"
  attr {
    key: "T"
    value {
      type: DT_FLOAT
    }
  }
  attr {
    key: "_class"
    value {
      list {
        s: "loc:@model/encoder/downsample1/downsample/conv/batchnorm/BatchNorm/moving_mean"
      }
    }
  }
  attr {
    key: "use_locking"
    value {
      b: true
    }
  }
  attr {
    key: "validate_shape"
    value {
      b: true
    }
  }
}
node {
  name: "model/encoder/downsample1/downsample/conv/batchnorm/BatchNorm/moving_mean/read"
  op: "Identity"
  input: "model/encoder/downsample1/downsample/conv/batchnorm/BatchNorm/moving_mean"
  attr {
    key: "T"
    value {
      type: DT_FLOAT
    }
  }
  attr {
    key: "_class"
    value {
      list {
        s: "loc:@model/encoder/downsample1/downsample/conv/batchnorm/BatchNorm/moving_mean"
      }
    }
  }
}
node {
  name: "model/encoder/downsample1/downsample/conv/batchnorm/BatchNorm/moving_variance/Initializer/ones/shape_as_tensor"
  op: "Const"
  attr {
    key: "_class"
    value {
      list {
        s: "loc:@model/encoder/downsample1/downsample/conv/batchnorm/BatchNorm/moving_variance"
      }
    }
  }
  attr {
    key: "dtype"
    value {
      type: DT_INT32
    }
  }
  attr {
    key: "value"
    value {
      tensor {
        dtype: DT_INT32
        tensor_shape {
          dim {
            size: 1
          }
        }
        int_val: 13
      }
    }
  }
}
node {
  name: "model/encoder/downsample1/downsample/conv/batchnorm/BatchNorm/moving_variance/Initializer/ones/Const"
  op: "Const"
  attr {
    key: "_class"
    value {
      list {
        s: "loc:@model/encoder/downsample1/downsample/conv/batchnorm/BatchNorm/moving_variance"
      }
    }
  }
  attr {
    key: "dtype"
    value {
      type: DT_FLOAT
    }
  }
  attr {
    key: "value"
    value {
      tensor {
        dtype: DT_FLOAT
        tensor_shape {
        }
        float_val: 1.0
      }
    }
  }
}
node {
  name: "model/encoder/downsample1/downsample/conv/batchnorm/BatchNorm/moving_variance/Initializer/ones"
  op: "Fill"
  input: "model/encoder/downsample1/downsample/conv/batchnorm/BatchNorm/moving_variance/Initializer/ones/shape_as_tensor"
  input: "model/encoder/downsample1/downsample/conv/batchnorm/BatchNorm/moving_variance/Initializer/ones/Const"
  attr {
    key: "T"
    value {
      type: DT_FLOAT
    }
  }
  attr {
    key: "_class"
    value {
      list {
        s: "loc:@model/encoder/downsample1/downsample/conv/batchnorm/BatchNorm/moving_variance"
      }
    }
  }
  attr {
    key: "index_type"
    value {
      type: DT_INT32
    }
  }
}
node {
  name: "model/encoder/downsample1/downsample/conv/batchnorm/BatchNorm/moving_variance"
  op: "VariableV2"
  attr {
    key: "_class"
    value {
      list {
        s: "loc:@model/encoder/downsample1/downsample/conv/batchnorm/BatchNorm/moving_variance"
      }
    }
  }
  attr {
    key: "container"
    value {
      s: ""
    }
  }
  attr {
    key: "dtype"
    value {
      type: DT_FLOAT
    }
  }
  attr {
    key: "shape"
    value {
      shape {
        dim {
          size: 13
        }
      }
    }
  }
  attr {
    key: "shared_name"
    value {
      s: ""
    }
  }
}
node {
  name: "model/encoder/downsample1/downsample/conv/batchnorm/BatchNorm/moving_variance/Assign"
  op: "Assign"
  input: "model/encoder/downsample1/downsample/conv/batchnorm/BatchNorm/moving_variance"
  input: "model/encoder/downsample1/downsample/conv/batchnorm/BatchNorm/moving_variance/Initializer/ones"
  attr {
    key: "T"
    value {
      type: DT_FLOAT
    }
  }
  attr {
    key: "_class"
    value {
      list {
        s: "loc:@model/encoder/downsample1/downsample/conv/batchnorm/BatchNorm/moving_variance"
      }
    }
  }
  attr {
    key: "use_locking"
    value {
      b: true
    }
  }
  attr {
    key: "validate_shape"
    value {
      b: true
    }
  }
}
node {
  name: "model/encoder/downsample1/downsample/conv/batchnorm/BatchNorm/moving_variance/read"
  op: "Identity"
  input: "model/encoder/downsample1/downsample/conv/batchnorm/BatchNorm/moving_variance"
  attr {
    key: "T"
    value {
      type: DT_FLOAT
    }
  }
  attr {
    key: "_class"
    value {
      list {
        s: "loc:@model/encoder/downsample1/downsample/conv/batchnorm/BatchNorm/moving_variance"
      }
    }
  }
}
node {
  name: "test_model/model/encoder/downsample1/downsample/conv/batchnorm/BatchNorm/FusedBatchNorm"
  op: "FusedBatchNorm"
  input: "test_model/model/encoder/downsample1/downsample/conv/convolution/Conv2D"
  input: "model/encoder/downsample1/downsample/conv/batchnorm/BatchNorm/gamma/read"
  input: "model/encoder/downsample1/downsample/conv/batchnorm/BatchNorm/beta/read"
  input: "model/encoder/downsample1/downsample/conv/batchnorm/BatchNorm/moving_mean/read"
  input: "model/encoder/downsample1/downsample/conv/batchnorm/BatchNorm/moving_variance/read"
  attr {
    key: "T"
    value {
      type: DT_FLOAT
    }
  }
  attr {
    key: "data_format"
    value {
      s: "NCHW"
    }
  }
  attr {
    key: "epsilon"
    value {
      f: 0.0010000000474974513
    }
  }
  attr {
    key: "is_training"
    value {
      b: false
    }
  }
}
node {
  name: "test_model/model/encoder/downsample1/downsample/conv/batchnorm/BatchNorm/Const"
  op: "Const"
  attr {
    key: "dtype"
    value {
      type: DT_FLOAT
    }
  }
  attr {
    key: "value"
    value {
      tensor {
        dtype: DT_FLOAT
        tensor_shape {
        }
        float_val: 0.05000000074505806
      }
    }
  }
}
node {
  name: "test_model/model/encoder/downsample1/downsample/conv/relu/LeakyRelu/alpha"
  op: "Const"
  attr {
    key: "dtype"
    value {
      type: DT_FLOAT
    }
  }
  attr {
    key: "value"
    value {
      tensor {
        dtype: DT_FLOAT
        tensor_shape {
        }
        float_val: 0.20000000298023224
      }
    }
  }
}
node {
  name: "test_model/model/encoder/downsample1/downsample/conv/relu/LeakyRelu/mul"
  op: "Mul"
  input: "test_model/model/encoder/downsample1/downsample/conv/relu/LeakyRelu/alpha"
  input: "test_model/model/encoder/downsample1/downsample/conv/batchnorm/BatchNorm/FusedBatchNorm"
  attr {
    key: "T"
    value {
      type: DT_FLOAT
    }
  }
}
node {
  name: "test_model/model/encoder/downsample1/downsample/conv/relu/LeakyRelu/Maximum"
  op: "Maximum"
  input: "test_model/model/encoder/downsample1/downsample/conv/relu/LeakyRelu/mul"
  input: "test_model/model/encoder/downsample1/downsample/conv/batchnorm/BatchNorm/FusedBatchNorm"
  attr {
    key: "T"
    value {
      type: DT_FLOAT
    }
  }
}
node {
  name: "test_model/model/encoder/downsample1/downsample/pool/MaxPool"
  op: "MaxPool"
  input: "test_model/model/images/truediv"
  attr {
    key: "T"
    value {
      type: DT_FLOAT
    }
  }
  attr {
    key: "data_format"
    value {
      s: "NCHW"
    }
  }
  attr {
    key: "ksize"
    value {
      list {
        i: 1
        i: 1
        i: 2
        i: 2
      }
    }
  }
  attr {
    key: "padding"
    value {
      s: "SAME"
    }
  }
  attr {
    key: "strides"
    value {
      list {
        i: 1
        i: 1
        i: 2
        i: 2
      }
    }
  }
}
node {
  name: "test_model/model/encoder/downsample1/downsample/concat/concat/axis"
  op: "Const"
  attr {
    key: "dtype"
    value {
      type: DT_INT32
    }
  }
  attr {
    key: "value"
    value {
      tensor {
        dtype: DT_INT32
        tensor_shape {
        }
        int_val: 1
      }
    }
  }
}
node {
  name: "test_model/model/encoder/downsample1/downsample/concat/concat"
  op: "ConcatV2"
  input: "test_model/model/encoder/downsample1/downsample/conv/relu/LeakyRelu/Maximum"
  input: "test_model/model/encoder/downsample1/downsample/pool/MaxPool"
  input: "test_model/model/encoder/downsample1/downsample/concat/concat/axis"
  attr {
    key: "N"
    value {
      i: 2
    }
  }
  attr {
    key: "T"
    value {
      type: DT_FLOAT
    }
  }
  attr {
    key: "Tidx"
    value {
      type: DT_INT32
    }
  }
}
node {
  name: "model/encoder/downsample1/non-bt-1/non_bt/asym1/horiz/weights/w/Initializer/truncated_normal/shape"
  op: "Const"
  attr {
    key: "_class"
    value {
      list {
        s: "loc:@model/encoder/downsample1/non-bt-1/non_bt/asym1/horiz/weights/w"
      }
    }
  }
  attr {
    key: "dtype"
    value {
      type: DT_INT32
    }
  }
  attr {
    key: "value"
    value {
      tensor {
        dtype: DT_INT32
        tensor_shape {
          dim {
            size: 4
          }
        }
        tensor_content: "\003\000\000\000\001\000\000\000\020\000\000\000\020\000\000\000"
      }
    }
  }
}
node {
  name: "model/encoder/downsample1/non-bt-1/non_bt/asym1/horiz/weights/w/Initializer/truncated_normal/mean"
  op: "Const"
  attr {
    key: "_class"
    value {
      list {
        s: "loc:@model/encoder/downsample1/non-bt-1/non_bt/asym1/horiz/weights/w"
      }
    }
  }
  attr {
    key: "dtype"
    value {
      type: DT_FLOAT
    }
  }
  attr {
    key: "value"
    value {
      tensor {
        dtype: DT_FLOAT
        tensor_shape {
        }
        float_val: 0.0
      }
    }
  }
}
node {
  name: "model/encoder/downsample1/non-bt-1/non_bt/asym1/horiz/weights/w/Initializer/truncated_normal/stddev"
  op: "Const"
  attr {
    key: "_class"
    value {
      list {
        s: "loc:@model/encoder/downsample1/non-bt-1/non_bt/asym1/horiz/weights/w"
      }
    }
  }
  attr {
    key: "dtype"
    value {
      type: DT_FLOAT
    }
  }
  attr {
    key: "value"
    value {
      tensor {
        dtype: DT_FLOAT
        tensor_shape {
        }
        float_val: 0.14433756470680237
      }
    }
  }
}
node {
  name: "model/encoder/downsample1/non-bt-1/non_bt/asym1/horiz/weights/w/Initializer/truncated_normal/TruncatedNormal"
  op: "TruncatedNormal"
  input: "model/encoder/downsample1/non-bt-1/non_bt/asym1/horiz/weights/w/Initializer/truncated_normal/shape"
  attr {
    key: "T"
    value {
      type: DT_INT32
    }
  }
  attr {
    key: "_class"
    value {
      list {
        s: "loc:@model/encoder/downsample1/non-bt-1/non_bt/asym1/horiz/weights/w"
      }
    }
  }
  attr {
    key: "dtype"
    value {
      type: DT_FLOAT
    }
  }
  attr {
    key: "seed"
    value {
      i: 0
    }
  }
  attr {
    key: "seed2"
    value {
      i: 0
    }
  }
}
node {
  name: "model/encoder/downsample1/non-bt-1/non_bt/asym1/horiz/weights/w/Initializer/truncated_normal/mul"
  op: "Mul"
  input: "model/encoder/downsample1/non-bt-1/non_bt/asym1/horiz/weights/w/Initializer/truncated_normal/TruncatedNormal"
  input: "model/encoder/downsample1/non-bt-1/non_bt/asym1/horiz/weights/w/Initializer/truncated_normal/stddev"
  attr {
    key: "T"
    value {
      type: DT_FLOAT
    }
  }
  attr {
    key: "_class"
    value {
      list {
        s: "loc:@model/encoder/downsample1/non-bt-1/non_bt/asym1/horiz/weights/w"
      }
    }
  }
}
node {
  name: "model/encoder/downsample1/non-bt-1/non_bt/asym1/horiz/weights/w/Initializer/truncated_normal"
  op: "Add"
  input: "model/encoder/downsample1/non-bt-1/non_bt/asym1/horiz/weights/w/Initializer/truncated_normal/mul"
  input: "model/encoder/downsample1/non-bt-1/non_bt/asym1/horiz/weights/w/Initializer/truncated_normal/mean"
  attr {
    key: "T"
    value {
      type: DT_FLOAT
    }
  }
  attr {
    key: "_class"
    value {
      list {
        s: "loc:@model/encoder/downsample1/non-bt-1/non_bt/asym1/horiz/weights/w"
      }
    }
  }
}
node {
  name: "model/encoder/downsample1/non-bt-1/non_bt/asym1/horiz/weights/w"
  op: "VariableV2"
  attr {
    key: "_class"
    value {
      list {
        s: "loc:@model/encoder/downsample1/non-bt-1/non_bt/asym1/horiz/weights/w"
      }
    }
  }
  attr {
    key: "container"
    value {
      s: ""
    }
  }
  attr {
    key: "dtype"
    value {
      type: DT_FLOAT
    }
  }
  attr {
    key: "shape"
    value {
      shape {
        dim {
          size: 3
        }
        dim {
          size: 1
        }
        dim {
          size: 16
        }
        dim {
          size: 16
        }
      }
    }
  }
  attr {
    key: "shared_name"
    value {
      s: ""
    }
  }
}
node {
  name: "model/encoder/downsample1/non-bt-1/non_bt/asym1/horiz/weights/w/Assign"
  op: "Assign"
  input: "model/encoder/downsample1/non-bt-1/non_bt/asym1/horiz/weights/w"
  input: "model/encoder/downsample1/non-bt-1/non_bt/asym1/horiz/weights/w/Initializer/truncated_normal"
  attr {
    key: "T"
    value {
      type: DT_FLOAT
    }
  }
  attr {
    key: "_class"
    value {
      list {
        s: "loc:@model/encoder/downsample1/non-bt-1/non_bt/asym1/horiz/weights/w"
      }
    }
  }
  attr {
    key: "use_locking"
    value {
      b: true
    }
  }
  attr {
    key: "validate_shape"
    value {
      b: true
    }
  }
}
node {
  name: "model/encoder/downsample1/non-bt-1/non_bt/asym1/horiz/weights/w/read"
  op: "Identity"
  input: "model/encoder/downsample1/non-bt-1/non_bt/asym1/horiz/weights/w"
  attr {
    key: "T"
    value {
      type: DT_FLOAT
    }
  }
  attr {
    key: "_class"
    value {
      list {
        s: "loc:@model/encoder/downsample1/non-bt-1/non_bt/asym1/horiz/weights/w"
      }
    }
  }
}
node {
  name: "test_model/model/encoder/downsample1/non-bt-1/non_bt/asym1/horiz/convolution/Conv2D"
  op: "Conv2D"
  input: "test_model/model/encoder/downsample1/downsample/concat/concat"
  input: "model/encoder/downsample1/non-bt-1/non_bt/asym1/horiz/weights/w/read"
  attr {
    key: "T"
    value {
      type: DT_FLOAT
    }
  }
  attr {
    key: "data_format"
    value {
      s: "NCHW"
    }
  }
  attr {
    key: "dilations"
    value {
      list {
        i: 1
        i: 1
        i: 1
        i: 1
      }
    }
  }
  attr {
    key: "padding"
    value {
      s: "SAME"
    }
  }
  attr {
    key: "strides"
    value {
      list {
        i: 1
        i: 1
        i: 1
        i: 1
      }
    }
  }
  attr {
    key: "use_cudnn_on_gpu"
    value {
      b: true
    }
  }
}
node {
  name: "model/encoder/downsample1/non-bt-1/non_bt/asym1/vert/weights/w/Initializer/truncated_normal/shape"
  op: "Const"
  attr {
    key: "_class"
    value {
      list {
        s: "loc:@model/encoder/downsample1/non-bt-1/non_bt/asym1/vert/weights/w"
      }
    }
  }
  attr {
    key: "dtype"
    value {
      type: DT_INT32
    }
  }
  attr {
    key: "value"
    value {
      tensor {
        dtype: DT_INT32
        tensor_shape {
          dim {
            size: 4
          }
        }
        tensor_content: "\001\000\000\000\003\000\000\000\020\000\000\000\020\000\000\000"
      }
    }
  }
}
node {
  name: "model/encoder/downsample1/non-bt-1/non_bt/asym1/vert/weights/w/Initializer/truncated_normal/mean"
  op: "Const"
  attr {
    key: "_class"
    value {
      list {
        s: "loc:@model/encoder/downsample1/non-bt-1/non_bt/asym1/vert/weights/w"
      }
    }
  }
  attr {
    key: "dtype"
    value {
      type: DT_FLOAT
    }
  }
  attr {
    key: "value"
    value {
      tensor {
        dtype: DT_FLOAT
        tensor_shape {
        }
        float_val: 0.0
      }
    }
  }
}
node {
  name: "model/encoder/downsample1/non-bt-1/non_bt/asym1/vert/weights/w/Initializer/truncated_normal/stddev"
  op: "Const"
  attr {
    key: "_class"
    value {
      list {
        s: "loc:@model/encoder/downsample1/non-bt-1/non_bt/asym1/vert/weights/w"
      }
    }
  }
  attr {
    key: "dtype"
    value {
      type: DT_FLOAT
    }
  }
  attr {
    key: "value"
    value {
      tensor {
        dtype: DT_FLOAT
        tensor_shape {
        }
        float_val: 0.14433756470680237
      }
    }
  }
}
node {
  name: "model/encoder/downsample1/non-bt-1/non_bt/asym1/vert/weights/w/Initializer/truncated_normal/TruncatedNormal"
  op: "TruncatedNormal"
  input: "model/encoder/downsample1/non-bt-1/non_bt/asym1/vert/weights/w/Initializer/truncated_normal/shape"
  attr {
    key: "T"
    value {
      type: DT_INT32
    }
  }
  attr {
    key: "_class"
    value {
      list {
        s: "loc:@model/encoder/downsample1/non-bt-1/non_bt/asym1/vert/weights/w"
      }
    }
  }
  attr {
    key: "dtype"
    value {
      type: DT_FLOAT
    }
  }
  attr {
    key: "seed"
    value {
      i: 0
    }
  }
  attr {
    key: "seed2"
    value {
      i: 0
    }
  }
}
node {
  name: "model/encoder/downsample1/non-bt-1/non_bt/asym1/vert/weights/w/Initializer/truncated_normal/mul"
  op: "Mul"
  input: "model/encoder/downsample1/non-bt-1/non_bt/asym1/vert/weights/w/Initializer/truncated_normal/TruncatedNormal"
  input: "model/encoder/downsample1/non-bt-1/non_bt/asym1/vert/weights/w/Initializer/truncated_normal/stddev"
  attr {
    key: "T"
    value {
      type: DT_FLOAT
    }
  }
  attr {
    key: "_class"
    value {
      list {
        s: "loc:@model/encoder/downsample1/non-bt-1/non_bt/asym1/vert/weights/w"
      }
    }
  }
}
node {
  name: "model/encoder/downsample1/non-bt-1/non_bt/asym1/vert/weights/w/Initializer/truncated_normal"
  op: "Add"
  input: "model/encoder/downsample1/non-bt-1/non_bt/asym1/vert/weights/w/Initializer/truncated_normal/mul"
  input: "model/encoder/downsample1/non-bt-1/non_bt/asym1/vert/weights/w/Initializer/truncated_normal/mean"
  attr {
    key: "T"
    value {
      type: DT_FLOAT
    }
  }
  attr {
    key: "_class"
    value {
      list {
        s: "loc:@model/encoder/downsample1/non-bt-1/non_bt/asym1/vert/weights/w"
      }
    }
  }
}
node {
  name: "model/encoder/downsample1/non-bt-1/non_bt/asym1/vert/weights/w"
  op: "VariableV2"
  attr {
    key: "_class"
    value {
      list {
        s: "loc:@model/encoder/downsample1/non-bt-1/non_bt/asym1/vert/weights/w"
      }
    }
  }
  attr {
    key: "container"
    value {
      s: ""
    }
  }
  attr {
    key: "dtype"
    value {
      type: DT_FLOAT
    }
  }
  attr {
    key: "shape"
    value {
      shape {
        dim {
          size: 1
        }
        dim {
          size: 3
        }
        dim {
          size: 16
        }
        dim {
          size: 16
        }
      }
    }
  }
  attr {
    key: "shared_name"
    value {
      s: ""
    }
  }
}
node {
  name: "model/encoder/downsample1/non-bt-1/non_bt/asym1/vert/weights/w/Assign"
  op: "Assign"
  input: "model/encoder/downsample1/non-bt-1/non_bt/asym1/vert/weights/w"
  input: "model/encoder/downsample1/non-bt-1/non_bt/asym1/vert/weights/w/Initializer/truncated_normal"
  attr {
    key: "T"
    value {
      type: DT_FLOAT
    }
  }
  attr {
    key: "_class"
    value {
      list {
        s: "loc:@model/encoder/downsample1/non-bt-1/non_bt/asym1/vert/weights/w"
      }
    }
  }
  attr {
    key: "use_locking"
    value {
      b: true
    }
  }
  attr {
    key: "validate_shape"
    value {
      b: true
    }
  }
}
node {
  name: "model/encoder/downsample1/non-bt-1/non_bt/asym1/vert/weights/w/read"
  op: "Identity"
  input: "model/encoder/downsample1/non-bt-1/non_bt/asym1/vert/weights/w"
  attr {
    key: "T"
    value {
      type: DT_FLOAT
    }
  }
  attr {
    key: "_class"
    value {
      list {
        s: "loc:@model/encoder/downsample1/non-bt-1/non_bt/asym1/vert/weights/w"
      }
    }
  }
}
node {
  name: "test_model/model/encoder/downsample1/non-bt-1/non_bt/asym1/vert/convolution/Conv2D"
  op: "Conv2D"
  input: "test_model/model/encoder/downsample1/non-bt-1/non_bt/asym1/horiz/convolution/Conv2D"
  input: "model/encoder/downsample1/non-bt-1/non_bt/asym1/vert/weights/w/read"
  attr {
    key: "T"
    value {
      type: DT_FLOAT
    }
  }
  attr {
    key: "data_format"
    value {
      s: "NCHW"
    }
  }
  attr {
    key: "dilations"
    value {
      list {
        i: 1
        i: 1
        i: 1
        i: 1
      }
    }
  }
  attr {
    key: "padding"
    value {
      s: "SAME"
    }
  }
  attr {
    key: "strides"
    value {
      list {
        i: 1
        i: 1
        i: 1
        i: 1
      }
    }
  }
  attr {
    key: "use_cudnn_on_gpu"
    value {
      b: true
    }
  }
}
node {
  name: "test_model/model/encoder/downsample1/non-bt-1/non_bt/asym1/vert/relu/LeakyRelu/alpha"
  op: "Const"
  attr {
    key: "dtype"
    value {
      type: DT_FLOAT
    }
  }
  attr {
    key: "value"
    value {
      tensor {
        dtype: DT_FLOAT
        tensor_shape {
        }
        float_val: 0.20000000298023224
      }
    }
  }
}
node {
  name: "test_model/model/encoder/downsample1/non-bt-1/non_bt/asym1/vert/relu/LeakyRelu/mul"
  op: "Mul"
  input: "test_model/model/encoder/downsample1/non-bt-1/non_bt/asym1/vert/relu/LeakyRelu/alpha"
  input: "test_model/model/encoder/downsample1/non-bt-1/non_bt/asym1/vert/convolution/Conv2D"
  attr {
    key: "T"
    value {
      type: DT_FLOAT
    }
  }
}
node {
  name: "test_model/model/encoder/downsample1/non-bt-1/non_bt/asym1/vert/relu/LeakyRelu/Maximum"
  op: "Maximum"
  input: "test_model/model/encoder/downsample1/non-bt-1/non_bt/asym1/vert/relu/LeakyRelu/mul"
  input: "test_model/model/encoder/downsample1/non-bt-1/non_bt/asym1/vert/convolution/Conv2D"
  attr {
    key: "T"
    value {
      type: DT_FLOAT
    }
  }
}
node {
  name: "model/encoder/downsample1/non-bt-1/non_bt/asym2/horiz/weights/w/Initializer/truncated_normal/shape"
  op: "Const"
  attr {
    key: "_class"
    value {
      list {
        s: "loc:@model/encoder/downsample1/non-bt-1/non_bt/asym2/horiz/weights/w"
      }
    }
  }
  attr {
    key: "dtype"
    value {
      type: DT_INT32
    }
  }
  attr {
    key: "value"
    value {
      tensor {
        dtype: DT_INT32
        tensor_shape {
          dim {
            size: 4
          }
        }
        tensor_content: "\003\000\000\000\001\000\000\000\020\000\000\000\020\000\000\000"
      }
    }
  }
}
node {
  name: "model/encoder/downsample1/non-bt-1/non_bt/asym2/horiz/weights/w/Initializer/truncated_normal/mean"
  op: "Const"
  attr {
    key: "_class"
    value {
      list {
        s: "loc:@model/encoder/downsample1/non-bt-1/non_bt/asym2/horiz/weights/w"
      }
    }
  }
  attr {
    key: "dtype"
    value {
      type: DT_FLOAT
    }
  }
  attr {
    key: "value"
    value {
      tensor {
        dtype: DT_FLOAT
        tensor_shape {
        }
        float_val: 0.0
      }
    }
  }
}
node {
  name: "model/encoder/downsample1/non-bt-1/non_bt/asym2/horiz/weights/w/Initializer/truncated_normal/stddev"
  op: "Const"
  attr {
    key: "_class"
    value {
      list {
        s: "loc:@model/encoder/downsample1/non-bt-1/non_bt/asym2/horiz/weights/w"
      }
    }
  }
  attr {
    key: "dtype"
    value {
      type: DT_FLOAT
    }
  }
  attr {
    key: "value"
    value {
      tensor {
        dtype: DT_FLOAT
        tensor_shape {
        }
        float_val: 0.14433756470680237
      }
    }
  }
}
node {
  name: "model/encoder/downsample1/non-bt-1/non_bt/asym2/horiz/weights/w/Initializer/truncated_normal/TruncatedNormal"
  op: "TruncatedNormal"
  input: "model/encoder/downsample1/non-bt-1/non_bt/asym2/horiz/weights/w/Initializer/truncated_normal/shape"
  attr {
    key: "T"
    value {
      type: DT_INT32
    }
  }
  attr {
    key: "_class"
    value {
      list {
        s: "loc:@model/encoder/downsample1/non-bt-1/non_bt/asym2/horiz/weights/w"
      }
    }
  }
  attr {
    key: "dtype"
    value {
      type: DT_FLOAT
    }
  }
  attr {
    key: "seed"
    value {
      i: 0
    }
  }
  attr {
    key: "seed2"
    value {
      i: 0
    }
  }
}
node {
  name: "model/encoder/downsample1/non-bt-1/non_bt/asym2/horiz/weights/w/Initializer/truncated_normal/mul"
  op: "Mul"
  input: "model/encoder/downsample1/non-bt-1/non_bt/asym2/horiz/weights/w/Initializer/truncated_normal/TruncatedNormal"
  input: "model/encoder/downsample1/non-bt-1/non_bt/asym2/horiz/weights/w/Initializer/truncated_normal/stddev"
  attr {
    key: "T"
    value {
      type: DT_FLOAT
    }
  }
  attr {
    key: "_class"
    value {
      list {
        s: "loc:@model/encoder/downsample1/non-bt-1/non_bt/asym2/horiz/weights/w"
      }
    }
  }
}
node {
  name: "model/encoder/downsample1/non-bt-1/non_bt/asym2/horiz/weights/w/Initializer/truncated_normal"
  op: "Add"
  input: "model/encoder/downsample1/non-bt-1/non_bt/asym2/horiz/weights/w/Initializer/truncated_normal/mul"
  input: "model/encoder/downsample1/non-bt-1/non_bt/asym2/horiz/weights/w/Initializer/truncated_normal/mean"
  attr {
    key: "T"
    value {
      type: DT_FLOAT
    }
  }
  attr {
    key: "_class"
    value {
      list {
        s: "loc:@model/encoder/downsample1/non-bt-1/non_bt/asym2/horiz/weights/w"
      }
    }
  }
}
node {
  name: "model/encoder/downsample1/non-bt-1/non_bt/asym2/horiz/weights/w"
  op: "VariableV2"
  attr {
    key: "_class"
    value {
      list {
        s: "loc:@model/encoder/downsample1/non-bt-1/non_bt/asym2/horiz/weights/w"
      }
    }
  }
  attr {
    key: "container"
    value {
      s: ""
    }
  }
  attr {
    key: "dtype"
    value {
      type: DT_FLOAT
    }
  }
  attr {
    key: "shape"
    value {
      shape {
        dim {
          size: 3
        }
        dim {
          size: 1
        }
        dim {
          size: 16
        }
        dim {
          size: 16
        }
      }
    }
  }
  attr {
    key: "shared_name"
    value {
      s: ""
    }
  }
}
node {
  name: "model/encoder/downsample1/non-bt-1/non_bt/asym2/horiz/weights/w/Assign"
  op: "Assign"
  input: "model/encoder/downsample1/non-bt-1/non_bt/asym2/horiz/weights/w"
  input: "model/encoder/downsample1/non-bt-1/non_bt/asym2/horiz/weights/w/Initializer/truncated_normal"
  attr {
    key: "T"
    value {
      type: DT_FLOAT
    }
  }
  attr {
    key: "_class"
    value {
      list {
        s: "loc:@model/encoder/downsample1/non-bt-1/non_bt/asym2/horiz/weights/w"
      }
    }
  }
  attr {
    key: "use_locking"
    value {
      b: true
    }
  }
  attr {
    key: "validate_shape"
    value {
      b: true
    }
  }
}
node {
  name: "model/encoder/downsample1/non-bt-1/non_bt/asym2/horiz/weights/w/read"
  op: "Identity"
  input: "model/encoder/downsample1/non-bt-1/non_bt/asym2/horiz/weights/w"
  attr {
    key: "T"
    value {
      type: DT_FLOAT
    }
  }
  attr {
    key: "_class"
    value {
      list {
        s: "loc:@model/encoder/downsample1/non-bt-1/non_bt/asym2/horiz/weights/w"
      }
    }
  }
}
node {
  name: "test_model/model/encoder/downsample1/non-bt-1/non_bt/asym2/horiz/convolution/Conv2D"
  op: "Conv2D"
  input: "test_model/model/encoder/downsample1/non-bt-1/non_bt/asym1/vert/relu/LeakyRelu/Maximum"
  input: "model/encoder/downsample1/non-bt-1/non_bt/asym2/horiz/weights/w/read"
  attr {
    key: "T"
    value {
      type: DT_FLOAT
    }
  }
  attr {
    key: "data_format"
    value {
      s: "NCHW"
    }
  }
  attr {
    key: "dilations"
    value {
      list {
        i: 1
        i: 1
        i: 1
        i: 1
      }
    }
  }
  attr {
    key: "padding"
    value {
      s: "SAME"
    }
  }
  attr {
    key: "strides"
    value {
      list {
        i: 1
        i: 1
        i: 1
        i: 1
      }
    }
  }
  attr {
    key: "use_cudnn_on_gpu"
    value {
      b: true
    }
  }
}
node {
  name: "model/encoder/downsample1/non-bt-1/non_bt/asym2/vert/weights/w/Initializer/truncated_normal/shape"
  op: "Const"
  attr {
    key: "_class"
    value {
      list {
        s: "loc:@model/encoder/downsample1/non-bt-1/non_bt/asym2/vert/weights/w"
      }
    }
  }
  attr {
    key: "dtype"
    value {
      type: DT_INT32
    }
  }
  attr {
    key: "value"
    value {
      tensor {
        dtype: DT_INT32
        tensor_shape {
          dim {
            size: 4
          }
        }
        tensor_content: "\001\000\000\000\003\000\000\000\020\000\000\000\020\000\000\000"
      }
    }
  }
}
node {
  name: "model/encoder/downsample1/non-bt-1/non_bt/asym2/vert/weights/w/Initializer/truncated_normal/mean"
  op: "Const"
  attr {
    key: "_class"
    value {
      list {
        s: "loc:@model/encoder/downsample1/non-bt-1/non_bt/asym2/vert/weights/w"
      }
    }
  }
  attr {
    key: "dtype"
    value {
      type: DT_FLOAT
    }
  }
  attr {
    key: "value"
    value {
      tensor {
        dtype: DT_FLOAT
        tensor_shape {
        }
        float_val: 0.0
      }
    }
  }
}
node {
  name: "model/encoder/downsample1/non-bt-1/non_bt/asym2/vert/weights/w/Initializer/truncated_normal/stddev"
  op: "Const"
  attr {
    key: "_class"
    value {
      list {
        s: "loc:@model/encoder/downsample1/non-bt-1/non_bt/asym2/vert/weights/w"
      }
    }
  }
  attr {
    key: "dtype"
    value {
      type: DT_FLOAT
    }
  }
  attr {
    key: "value"
    value {
      tensor {
        dtype: DT_FLOAT
        tensor_shape {
        }
        float_val: 0.14433756470680237
      }
    }
  }
}
node {
  name: "model/encoder/downsample1/non-bt-1/non_bt/asym2/vert/weights/w/Initializer/truncated_normal/TruncatedNormal"
  op: "TruncatedNormal"
  input: "model/encoder/downsample1/non-bt-1/non_bt/asym2/vert/weights/w/Initializer/truncated_normal/shape"
  attr {
    key: "T"
    value {
      type: DT_INT32
    }
  }
  attr {
    key: "_class"
    value {
      list {
        s: "loc:@model/encoder/downsample1/non-bt-1/non_bt/asym2/vert/weights/w"
      }
    }
  }
  attr {
    key: "dtype"
    value {
      type: DT_FLOAT
    }
  }
  attr {
    key: "seed"
    value {
      i: 0
    }
  }
  attr {
    key: "seed2"
    value {
      i: 0
    }
  }
}
node {
  name: "model/encoder/downsample1/non-bt-1/non_bt/asym2/vert/weights/w/Initializer/truncated_normal/mul"
  op: "Mul"
  input: "model/encoder/downsample1/non-bt-1/non_bt/asym2/vert/weights/w/Initializer/truncated_normal/TruncatedNormal"
  input: "model/encoder/downsample1/non-bt-1/non_bt/asym2/vert/weights/w/Initializer/truncated_normal/stddev"
  attr {
    key: "T"
    value {
      type: DT_FLOAT
    }
  }
  attr {
    key: "_class"
    value {
      list {
        s: "loc:@model/encoder/downsample1/non-bt-1/non_bt/asym2/vert/weights/w"
      }
    }
  }
}
node {
  name: "model/encoder/downsample1/non-bt-1/non_bt/asym2/vert/weights/w/Initializer/truncated_normal"
  op: "Add"
  input: "model/encoder/downsample1/non-bt-1/non_bt/asym2/vert/weights/w/Initializer/truncated_normal/mul"
  input: "model/encoder/downsample1/non-bt-1/non_bt/asym2/vert/weights/w/Initializer/truncated_normal/mean"
  attr {
    key: "T"
    value {
      type: DT_FLOAT
    }
  }
  attr {
    key: "_class"
    value {
      list {
        s: "loc:@model/encoder/downsample1/non-bt-1/non_bt/asym2/vert/weights/w"
      }
    }
  }
}
node {
  name: "model/encoder/downsample1/non-bt-1/non_bt/asym2/vert/weights/w"
  op: "VariableV2"
  attr {
    key: "_class"
    value {
      list {
        s: "loc:@model/encoder/downsample1/non-bt-1/non_bt/asym2/vert/weights/w"
      }
    }
  }
  attr {
    key: "container"
    value {
      s: ""
    }
  }
  attr {
    key: "dtype"
    value {
      type: DT_FLOAT
    }
  }
  attr {
    key: "shape"
    value {
      shape {
        dim {
          size: 1
        }
        dim {
          size: 3
        }
        dim {
          size: 16
        }
        dim {
          size: 16
        }
      }
    }
  }
  attr {
    key: "shared_name"
    value {
      s: ""
    }
  }
}
node {
  name: "model/encoder/downsample1/non-bt-1/non_bt/asym2/vert/weights/w/Assign"
  op: "Assign"
  input: "model/encoder/downsample1/non-bt-1/non_bt/asym2/vert/weights/w"
  input: "model/encoder/downsample1/non-bt-1/non_bt/asym2/vert/weights/w/Initializer/truncated_normal"
  attr {
    key: "T"
    value {
      type: DT_FLOAT
    }
  }
  attr {
    key: "_class"
    value {
      list {
        s: "loc:@model/encoder/downsample1/non-bt-1/non_bt/asym2/vert/weights/w"
      }
    }
  }
  attr {
    key: "use_locking"
    value {
      b: true
    }
  }
  attr {
    key: "validate_shape"
    value {
      b: true
    }
  }
}
node {
  name: "model/encoder/downsample1/non-bt-1/non_bt/asym2/vert/weights/w/read"
  op: "Identity"
  input: "model/encoder/downsample1/non-bt-1/non_bt/asym2/vert/weights/w"
  attr {
    key: "T"
    value {
      type: DT_FLOAT
    }
  }
  attr {
    key: "_class"
    value {
      list {
        s: "loc:@model/encoder/downsample1/non-bt-1/non_bt/asym2/vert/weights/w"
      }
    }
  }
}
node {
  name: "test_model/model/encoder/downsample1/non-bt-1/non_bt/asym2/vert/convolution/Conv2D"
  op: "Conv2D"
  input: "test_model/model/encoder/downsample1/non-bt-1/non_bt/asym2/horiz/convolution/Conv2D"
  input: "model/encoder/downsample1/non-bt-1/non_bt/asym2/vert/weights/w/read"
  attr {
    key: "T"
    value {
      type: DT_FLOAT
    }
  }
  attr {
    key: "data_format"
    value {
      s: "NCHW"
    }
  }
  attr {
    key: "dilations"
    value {
      list {
        i: 1
        i: 1
        i: 1
        i: 1
      }
    }
  }
  attr {
    key: "padding"
    value {
      s: "SAME"
    }
  }
  attr {
    key: "strides"
    value {
      list {
        i: 1
        i: 1
        i: 1
        i: 1
      }
    }
  }
  attr {
    key: "use_cudnn_on_gpu"
    value {
      b: true
    }
  }
}
node {
  name: "model/encoder/downsample1/non-bt-1/non_bt/batchnorm/BatchNorm/gamma/Initializer/ones/shape_as_tensor"
  op: "Const"
  attr {
    key: "_class"
    value {
      list {
        s: "loc:@model/encoder/downsample1/non-bt-1/non_bt/batchnorm/BatchNorm/gamma"
      }
    }
  }
  attr {
    key: "dtype"
    value {
      type: DT_INT32
    }
  }
  attr {
    key: "value"
    value {
      tensor {
        dtype: DT_INT32
        tensor_shape {
          dim {
            size: 1
          }
        }
        int_val: 16
      }
    }
  }
}
node {
  name: "model/encoder/downsample1/non-bt-1/non_bt/batchnorm/BatchNorm/gamma/Initializer/ones/Const"
  op: "Const"
  attr {
    key: "_class"
    value {
      list {
        s: "loc:@model/encoder/downsample1/non-bt-1/non_bt/batchnorm/BatchNorm/gamma"
      }
    }
  }
  attr {
    key: "dtype"
    value {
      type: DT_FLOAT
    }
  }
  attr {
    key: "value"
    value {
      tensor {
        dtype: DT_FLOAT
        tensor_shape {
        }
        float_val: 1.0
      }
    }
  }
}
node {
  name: "model/encoder/downsample1/non-bt-1/non_bt/batchnorm/BatchNorm/gamma/Initializer/ones"
  op: "Fill"
  input: "model/encoder/downsample1/non-bt-1/non_bt/batchnorm/BatchNorm/gamma/Initializer/ones/shape_as_tensor"
  input: "model/encoder/downsample1/non-bt-1/non_bt/batchnorm/BatchNorm/gamma/Initializer/ones/Const"
  attr {
    key: "T"
    value {
      type: DT_FLOAT
    }
  }
  attr {
    key: "_class"
    value {
      list {
        s: "loc:@model/encoder/downsample1/non-bt-1/non_bt/batchnorm/BatchNorm/gamma"
      }
    }
  }
  attr {
    key: "index_type"
    value {
      type: DT_INT32
    }
  }
}
node {
  name: "model/encoder/downsample1/non-bt-1/non_bt/batchnorm/BatchNorm/gamma"
  op: "VariableV2"
  attr {
    key: "_class"
    value {
      list {
        s: "loc:@model/encoder/downsample1/non-bt-1/non_bt/batchnorm/BatchNorm/gamma"
      }
    }
  }
  attr {
    key: "container"
    value {
      s: ""
    }
  }
  attr {
    key: "dtype"
    value {
      type: DT_FLOAT
    }
  }
  attr {
    key: "shape"
    value {
      shape {
        dim {
          size: 16
        }
      }
    }
  }
  attr {
    key: "shared_name"
    value {
      s: ""
    }
  }
}
node {
  name: "model/encoder/downsample1/non-bt-1/non_bt/batchnorm/BatchNorm/gamma/Assign"
  op: "Assign"
  input: "model/encoder/downsample1/non-bt-1/non_bt/batchnorm/BatchNorm/gamma"
  input: "model/encoder/downsample1/non-bt-1/non_bt/batchnorm/BatchNorm/gamma/Initializer/ones"
  attr {
    key: "T"
    value {
      type: DT_FLOAT
    }
  }
  attr {
    key: "_class"
    value {
      list {
        s: "loc:@model/encoder/downsample1/non-bt-1/non_bt/batchnorm/BatchNorm/gamma"
      }
    }
  }
  attr {
    key: "use_locking"
    value {
      b: true
    }
  }
  attr {
    key: "validate_shape"
    value {
      b: true
    }
  }
}
node {
  name: "model/encoder/downsample1/non-bt-1/non_bt/batchnorm/BatchNorm/gamma/read"
  op: "Identity"
  input: "model/encoder/downsample1/non-bt-1/non_bt/batchnorm/BatchNorm/gamma"
  attr {
    key: "T"
    value {
      type: DT_FLOAT
    }
  }
  attr {
    key: "_class"
    value {
      list {
        s: "loc:@model/encoder/downsample1/non-bt-1/non_bt/batchnorm/BatchNorm/gamma"
      }
    }
  }
}
node {
  name: "model/encoder/downsample1/non-bt-1/non_bt/batchnorm/BatchNorm/beta/Initializer/zeros/shape_as_tensor"
  op: "Const"
  attr {
    key: "_class"
    value {
      list {
        s: "loc:@model/encoder/downsample1/non-bt-1/non_bt/batchnorm/BatchNorm/beta"
      }
    }
  }
  attr {
    key: "dtype"
    value {
      type: DT_INT32
    }
  }
  attr {
    key: "value"
    value {
      tensor {
        dtype: DT_INT32
        tensor_shape {
          dim {
            size: 1
          }
        }
        int_val: 16
      }
    }
  }
}
node {
  name: "model/encoder/downsample1/non-bt-1/non_bt/batchnorm/BatchNorm/beta/Initializer/zeros/Const"
  op: "Const"
  attr {
    key: "_class"
    value {
      list {
        s: "loc:@model/encoder/downsample1/non-bt-1/non_bt/batchnorm/BatchNorm/beta"
      }
    }
  }
  attr {
    key: "dtype"
    value {
      type: DT_FLOAT
    }
  }
  attr {
    key: "value"
    value {
      tensor {
        dtype: DT_FLOAT
        tensor_shape {
        }
        float_val: 0.0
      }
    }
  }
}
node {
  name: "model/encoder/downsample1/non-bt-1/non_bt/batchnorm/BatchNorm/beta/Initializer/zeros"
  op: "Fill"
  input: "model/encoder/downsample1/non-bt-1/non_bt/batchnorm/BatchNorm/beta/Initializer/zeros/shape_as_tensor"
  input: "model/encoder/downsample1/non-bt-1/non_bt/batchnorm/BatchNorm/beta/Initializer/zeros/Const"
  attr {
    key: "T"
    value {
      type: DT_FLOAT
    }
  }
  attr {
    key: "_class"
    value {
      list {
        s: "loc:@model/encoder/downsample1/non-bt-1/non_bt/batchnorm/BatchNorm/beta"
      }
    }
  }
  attr {
    key: "index_type"
    value {
      type: DT_INT32
    }
  }
}
node {
  name: "model/encoder/downsample1/non-bt-1/non_bt/batchnorm/BatchNorm/beta"
  op: "VariableV2"
  attr {
    key: "_class"
    value {
      list {
        s: "loc:@model/encoder/downsample1/non-bt-1/non_bt/batchnorm/BatchNorm/beta"
      }
    }
  }
  attr {
    key: "container"
    value {
      s: ""
    }
  }
  attr {
    key: "dtype"
    value {
      type: DT_FLOAT
    }
  }
  attr {
    key: "shape"
    value {
      shape {
        dim {
          size: 16
        }
      }
    }
  }
  attr {
    key: "shared_name"
    value {
      s: ""
    }
  }
}
node {
  name: "model/encoder/downsample1/non-bt-1/non_bt/batchnorm/BatchNorm/beta/Assign"
  op: "Assign"
  input: "model/encoder/downsample1/non-bt-1/non_bt/batchnorm/BatchNorm/beta"
  input: "model/encoder/downsample1/non-bt-1/non_bt/batchnorm/BatchNorm/beta/Initializer/zeros"
  attr {
    key: "T"
    value {
      type: DT_FLOAT
    }
  }
  attr {
    key: "_class"
    value {
      list {
        s: "loc:@model/encoder/downsample1/non-bt-1/non_bt/batchnorm/BatchNorm/beta"
      }
    }
  }
  attr {
    key: "use_locking"
    value {
      b: true
    }
  }
  attr {
    key: "validate_shape"
    value {
      b: true
    }
  }
}
node {
  name: "model/encoder/downsample1/non-bt-1/non_bt/batchnorm/BatchNorm/beta/read"
  op: "Identity"
  input: "model/encoder/downsample1/non-bt-1/non_bt/batchnorm/BatchNorm/beta"
  attr {
    key: "T"
    value {
      type: DT_FLOAT
    }
  }
  attr {
    key: "_class"
    value {
      list {
        s: "loc:@model/encoder/downsample1/non-bt-1/non_bt/batchnorm/BatchNorm/beta"
      }
    }
  }
}
node {
  name: "model/encoder/downsample1/non-bt-1/non_bt/batchnorm/BatchNorm/moving_mean/Initializer/zeros/shape_as_tensor"
  op: "Const"
  attr {
    key: "_class"
    value {
      list {
        s: "loc:@model/encoder/downsample1/non-bt-1/non_bt/batchnorm/BatchNorm/moving_mean"
      }
    }
  }
  attr {
    key: "dtype"
    value {
      type: DT_INT32
    }
  }
  attr {
    key: "value"
    value {
      tensor {
        dtype: DT_INT32
        tensor_shape {
          dim {
            size: 1
          }
        }
        int_val: 16
      }
    }
  }
}
node {
  name: "model/encoder/downsample1/non-bt-1/non_bt/batchnorm/BatchNorm/moving_mean/Initializer/zeros/Const"
  op: "Const"
  attr {
    key: "_class"
    value {
      list {
        s: "loc:@model/encoder/downsample1/non-bt-1/non_bt/batchnorm/BatchNorm/moving_mean"
      }
    }
  }
  attr {
    key: "dtype"
    value {
      type: DT_FLOAT
    }
  }
  attr {
    key: "value"
    value {
      tensor {
        dtype: DT_FLOAT
        tensor_shape {
        }
        float_val: 0.0
      }
    }
  }
}
node {
  name: "model/encoder/downsample1/non-bt-1/non_bt/batchnorm/BatchNorm/moving_mean/Initializer/zeros"
  op: "Fill"
  input: "model/encoder/downsample1/non-bt-1/non_bt/batchnorm/BatchNorm/moving_mean/Initializer/zeros/shape_as_tensor"
  input: "model/encoder/downsample1/non-bt-1/non_bt/batchnorm/BatchNorm/moving_mean/Initializer/zeros/Const"
  attr {
    key: "T"
    value {
      type: DT_FLOAT
    }
  }
  attr {
    key: "_class"
    value {
      list {
        s: "loc:@model/encoder/downsample1/non-bt-1/non_bt/batchnorm/BatchNorm/moving_mean"
      }
    }
  }
  attr {
    key: "index_type"
    value {
      type: DT_INT32
    }
  }
}
node {
  name: "model/encoder/downsample1/non-bt-1/non_bt/batchnorm/BatchNorm/moving_mean"
  op: "VariableV2"
  attr {
    key: "_class"
    value {
      list {
        s: "loc:@model/encoder/downsample1/non-bt-1/non_bt/batchnorm/BatchNorm/moving_mean"
      }
    }
  }
  attr {
    key: "container"
    value {
      s: ""
    }
  }
  attr {
    key: "dtype"
    value {
      type: DT_FLOAT
    }
  }
  attr {
    key: "shape"
    value {
      shape {
        dim {
          size: 16
        }
      }
    }
  }
  attr {
    key: "shared_name"
    value {
      s: ""
    }
  }
}
node {
  name: "model/encoder/downsample1/non-bt-1/non_bt/batchnorm/BatchNorm/moving_mean/Assign"
  op: "Assign"
  input: "model/encoder/downsample1/non-bt-1/non_bt/batchnorm/BatchNorm/moving_mean"
  input: "model/encoder/downsample1/non-bt-1/non_bt/batchnorm/BatchNorm/moving_mean/Initializer/zeros"
  attr {
    key: "T"
    value {
      type: DT_FLOAT
    }
  }
  attr {
    key: "_class"
    value {
      list {
        s: "loc:@model/encoder/downsample1/non-bt-1/non_bt/batchnorm/BatchNorm/moving_mean"
      }
    }
  }
  attr {
    key: "use_locking"
    value {
      b: true
    }
  }
  attr {
    key: "validate_shape"
    value {
      b: true
    }
  }
}
node {
  name: "model/encoder/downsample1/non-bt-1/non_bt/batchnorm/BatchNorm/moving_mean/read"
  op: "Identity"
  input: "model/encoder/downsample1/non-bt-1/non_bt/batchnorm/BatchNorm/moving_mean"
  attr {
    key: "T"
    value {
      type: DT_FLOAT
    }
  }
  attr {
    key: "_class"
    value {
      list {
        s: "loc:@model/encoder/downsample1/non-bt-1/non_bt/batchnorm/BatchNorm/moving_mean"
      }
    }
  }
}
node {
  name: "model/encoder/downsample1/non-bt-1/non_bt/batchnorm/BatchNorm/moving_variance/Initializer/ones/shape_as_tensor"
  op: "Const"
  attr {
    key: "_class"
    value {
      list {
        s: "loc:@model/encoder/downsample1/non-bt-1/non_bt/batchnorm/BatchNorm/moving_variance"
      }
    }
  }
  attr {
    key: "dtype"
    value {
      type: DT_INT32
    }
  }
  attr {
    key: "value"
    value {
      tensor {
        dtype: DT_INT32
        tensor_shape {
          dim {
            size: 1
          }
        }
        int_val: 16
      }
    }
  }
}
node {
  name: "model/encoder/downsample1/non-bt-1/non_bt/batchnorm/BatchNorm/moving_variance/Initializer/ones/Const"
  op: "Const"
  attr {
    key: "_class"
    value {
      list {
        s: "loc:@model/encoder/downsample1/non-bt-1/non_bt/batchnorm/BatchNorm/moving_variance"
      }
    }
  }
  attr {
    key: "dtype"
    value {
      type: DT_FLOAT
    }
  }
  attr {
    key: "value"
    value {
      tensor {
        dtype: DT_FLOAT
        tensor_shape {
        }
        float_val: 1.0
      }
    }
  }
}
node {
  name: "model/encoder/downsample1/non-bt-1/non_bt/batchnorm/BatchNorm/moving_variance/Initializer/ones"
  op: "Fill"
  input: "model/encoder/downsample1/non-bt-1/non_bt/batchnorm/BatchNorm/moving_variance/Initializer/ones/shape_as_tensor"
  input: "model/encoder/downsample1/non-bt-1/non_bt/batchnorm/BatchNorm/moving_variance/Initializer/ones/Const"
  attr {
    key: "T"
    value {
      type: DT_FLOAT
    }
  }
  attr {
    key: "_class"
    value {
      list {
        s: "loc:@model/encoder/downsample1/non-bt-1/non_bt/batchnorm/BatchNorm/moving_variance"
      }
    }
  }
  attr {
    key: "index_type"
    value {
      type: DT_INT32
    }
  }
}
node {
  name: "model/encoder/downsample1/non-bt-1/non_bt/batchnorm/BatchNorm/moving_variance"
  op: "VariableV2"
  attr {
    key: "_class"
    value {
      list {
        s: "loc:@model/encoder/downsample1/non-bt-1/non_bt/batchnorm/BatchNorm/moving_variance"
      }
    }
  }
  attr {
    key: "container"
    value {
      s: ""
    }
  }
  attr {
    key: "dtype"
    value {
      type: DT_FLOAT
    }
  }
  attr {
    key: "shape"
    value {
      shape {
        dim {
          size: 16
        }
      }
    }
  }
  attr {
    key: "shared_name"
    value {
      s: ""
    }
  }
}
node {
  name: "model/encoder/downsample1/non-bt-1/non_bt/batchnorm/BatchNorm/moving_variance/Assign"
  op: "Assign"
  input: "model/encoder/downsample1/non-bt-1/non_bt/batchnorm/BatchNorm/moving_variance"
  input: "model/encoder/downsample1/non-bt-1/non_bt/batchnorm/BatchNorm/moving_variance/Initializer/ones"
  attr {
    key: "T"
    value {
      type: DT_FLOAT
    }
  }
  attr {
    key: "_class"
    value {
      list {
        s: "loc:@model/encoder/downsample1/non-bt-1/non_bt/batchnorm/BatchNorm/moving_variance"
      }
    }
  }
  attr {
    key: "use_locking"
    value {
      b: true
    }
  }
  attr {
    key: "validate_shape"
    value {
      b: true
    }
  }
}
node {
  name: "model/encoder/downsample1/non-bt-1/non_bt/batchnorm/BatchNorm/moving_variance/read"
  op: "Identity"
  input: "model/encoder/downsample1/non-bt-1/non_bt/batchnorm/BatchNorm/moving_variance"
  attr {
    key: "T"
    value {
      type: DT_FLOAT
    }
  }
  attr {
    key: "_class"
    value {
      list {
        s: "loc:@model/encoder/downsample1/non-bt-1/non_bt/batchnorm/BatchNorm/moving_variance"
      }
    }
  }
}
node {
  name: "test_model/model/encoder/downsample1/non-bt-1/non_bt/batchnorm/BatchNorm/FusedBatchNorm"
  op: "FusedBatchNorm"
  input: "test_model/model/encoder/downsample1/non-bt-1/non_bt/asym2/vert/convolution/Conv2D"
  input: "model/encoder/downsample1/non-bt-1/non_bt/batchnorm/BatchNorm/gamma/read"
  input: "model/encoder/downsample1/non-bt-1/non_bt/batchnorm/BatchNorm/beta/read"
  input: "model/encoder/downsample1/non-bt-1/non_bt/batchnorm/BatchNorm/moving_mean/read"
  input: "model/encoder/downsample1/non-bt-1/non_bt/batchnorm/BatchNorm/moving_variance/read"
  attr {
    key: "T"
    value {
      type: DT_FLOAT
    }
  }
  attr {
    key: "data_format"
    value {
      s: "NCHW"
    }
  }
  attr {
    key: "epsilon"
    value {
      f: 0.0010000000474974513
    }
  }
  attr {
    key: "is_training"
    value {
      b: false
    }
  }
}
node {
  name: "test_model/model/encoder/downsample1/non-bt-1/non_bt/batchnorm/BatchNorm/Const"
  op: "Const"
  attr {
    key: "dtype"
    value {
      type: DT_FLOAT
    }
  }
  attr {
    key: "value"
    value {
      tensor {
        dtype: DT_FLOAT
        tensor_shape {
        }
        float_val: 0.10000000149011612
      }
    }
  }
}
node {
  name: "test_model/model/encoder/downsample1/non-bt-1/non_bt/res/relu/add"
  op: "Add"
  input: "test_model/model/encoder/downsample1/downsample/concat/concat"
  input: "test_model/model/encoder/downsample1/non-bt-1/non_bt/batchnorm/BatchNorm/FusedBatchNorm"
  attr {
    key: "T"
    value {
      type: DT_FLOAT
    }
  }
}
node {
  name: "test_model/model/encoder/downsample1/non-bt-1/non_bt/res/relu/LeakyRelu/alpha"
  op: "Const"
  attr {
    key: "dtype"
    value {
      type: DT_FLOAT
    }
  }
  attr {
    key: "value"
    value {
      tensor {
        dtype: DT_FLOAT
        tensor_shape {
        }
        float_val: 0.20000000298023224
      }
    }
  }
}
node {
  name: "test_model/model/encoder/downsample1/non-bt-1/non_bt/res/relu/LeakyRelu/mul"
  op: "Mul"
  input: "test_model/model/encoder/downsample1/non-bt-1/non_bt/res/relu/LeakyRelu/alpha"
  input: "test_model/model/encoder/downsample1/non-bt-1/non_bt/res/relu/add"
  attr {
    key: "T"
    value {
      type: DT_FLOAT
    }
  }
}
node {
  name: "test_model/model/encoder/downsample1/non-bt-1/non_bt/res/relu/LeakyRelu/Maximum"
  op: "Maximum"
  input: "test_model/model/encoder/downsample1/non-bt-1/non_bt/res/relu/LeakyRelu/mul"
  input: "test_model/model/encoder/downsample1/non-bt-1/non_bt/res/relu/add"
  attr {
    key: "T"
    value {
      type: DT_FLOAT
    }
  }
}
node {
  name: "model/encoder/downsample1/non-bt-2/non_bt/asym1/horiz/weights/w/Initializer/truncated_normal/shape"
  op: "Const"
  attr {
    key: "_class"
    value {
      list {
        s: "loc:@model/encoder/downsample1/non-bt-2/non_bt/asym1/horiz/weights/w"
      }
    }
  }
  attr {
    key: "dtype"
    value {
      type: DT_INT32
    }
  }
  attr {
    key: "value"
    value {
      tensor {
        dtype: DT_INT32
        tensor_shape {
          dim {
            size: 4
          }
        }
        tensor_content: "\003\000\000\000\001\000\000\000\020\000\000\000\020\000\000\000"
      }
    }
  }
}
node {
  name: "model/encoder/downsample1/non-bt-2/non_bt/asym1/horiz/weights/w/Initializer/truncated_normal/mean"
  op: "Const"
  attr {
    key: "_class"
    value {
      list {
        s: "loc:@model/encoder/downsample1/non-bt-2/non_bt/asym1/horiz/weights/w"
      }
    }
  }
  attr {
    key: "dtype"
    value {
      type: DT_FLOAT
    }
  }
  attr {
    key: "value"
    value {
      tensor {
        dtype: DT_FLOAT
        tensor_shape {
        }
        float_val: 0.0
      }
    }
  }
}
node {
  name: "model/encoder/downsample1/non-bt-2/non_bt/asym1/horiz/weights/w/Initializer/truncated_normal/stddev"
  op: "Const"
  attr {
    key: "_class"
    value {
      list {
        s: "loc:@model/encoder/downsample1/non-bt-2/non_bt/asym1/horiz/weights/w"
      }
    }
  }
  attr {
    key: "dtype"
    value {
      type: DT_FLOAT
    }
  }
  attr {
    key: "value"
    value {
      tensor {
        dtype: DT_FLOAT
        tensor_shape {
        }
        float_val: 0.14433756470680237
      }
    }
  }
}
node {
  name: "model/encoder/downsample1/non-bt-2/non_bt/asym1/horiz/weights/w/Initializer/truncated_normal/TruncatedNormal"
  op: "TruncatedNormal"
  input: "model/encoder/downsample1/non-bt-2/non_bt/asym1/horiz/weights/w/Initializer/truncated_normal/shape"
  attr {
    key: "T"
    value {
      type: DT_INT32
    }
  }
  attr {
    key: "_class"
    value {
      list {
        s: "loc:@model/encoder/downsample1/non-bt-2/non_bt/asym1/horiz/weights/w"
      }
    }
  }
  attr {
    key: "dtype"
    value {
      type: DT_FLOAT
    }
  }
  attr {
    key: "seed"
    value {
      i: 0
    }
  }
  attr {
    key: "seed2"
    value {
      i: 0
    }
  }
}
node {
  name: "model/encoder/downsample1/non-bt-2/non_bt/asym1/horiz/weights/w/Initializer/truncated_normal/mul"
  op: "Mul"
  input: "model/encoder/downsample1/non-bt-2/non_bt/asym1/horiz/weights/w/Initializer/truncated_normal/TruncatedNormal"
  input: "model/encoder/downsample1/non-bt-2/non_bt/asym1/horiz/weights/w/Initializer/truncated_normal/stddev"
  attr {
    key: "T"
    value {
      type: DT_FLOAT
    }
  }
  attr {
    key: "_class"
    value {
      list {
        s: "loc:@model/encoder/downsample1/non-bt-2/non_bt/asym1/horiz/weights/w"
      }
    }
  }
}
node {
  name: "model/encoder/downsample1/non-bt-2/non_bt/asym1/horiz/weights/w/Initializer/truncated_normal"
  op: "Add"
  input: "model/encoder/downsample1/non-bt-2/non_bt/asym1/horiz/weights/w/Initializer/truncated_normal/mul"
  input: "model/encoder/downsample1/non-bt-2/non_bt/asym1/horiz/weights/w/Initializer/truncated_normal/mean"
  attr {
    key: "T"
    value {
      type: DT_FLOAT
    }
  }
  attr {
    key: "_class"
    value {
      list {
        s: "loc:@model/encoder/downsample1/non-bt-2/non_bt/asym1/horiz/weights/w"
      }
    }
  }
}
node {
  name: "model/encoder/downsample1/non-bt-2/non_bt/asym1/horiz/weights/w"
  op: "VariableV2"
  attr {
    key: "_class"
    value {
      list {
        s: "loc:@model/encoder/downsample1/non-bt-2/non_bt/asym1/horiz/weights/w"
      }
    }
  }
  attr {
    key: "container"
    value {
      s: ""
    }
  }
  attr {
    key: "dtype"
    value {
      type: DT_FLOAT
    }
  }
  attr {
    key: "shape"
    value {
      shape {
        dim {
          size: 3
        }
        dim {
          size: 1
        }
        dim {
          size: 16
        }
        dim {
          size: 16
        }
      }
    }
  }
  attr {
    key: "shared_name"
    value {
      s: ""
    }
  }
}
node {
  name: "model/encoder/downsample1/non-bt-2/non_bt/asym1/horiz/weights/w/Assign"
  op: "Assign"
  input: "model/encoder/downsample1/non-bt-2/non_bt/asym1/horiz/weights/w"
  input: "model/encoder/downsample1/non-bt-2/non_bt/asym1/horiz/weights/w/Initializer/truncated_normal"
  attr {
    key: "T"
    value {
      type: DT_FLOAT
    }
  }
  attr {
    key: "_class"
    value {
      list {
        s: "loc:@model/encoder/downsample1/non-bt-2/non_bt/asym1/horiz/weights/w"
      }
    }
  }
  attr {
    key: "use_locking"
    value {
      b: true
    }
  }
  attr {
    key: "validate_shape"
    value {
      b: true
    }
  }
}
node {
  name: "model/encoder/downsample1/non-bt-2/non_bt/asym1/horiz/weights/w/read"
  op: "Identity"
  input: "model/encoder/downsample1/non-bt-2/non_bt/asym1/horiz/weights/w"
  attr {
    key: "T"
    value {
      type: DT_FLOAT
    }
  }
  attr {
    key: "_class"
    value {
      list {
        s: "loc:@model/encoder/downsample1/non-bt-2/non_bt/asym1/horiz/weights/w"
      }
    }
  }
}
node {
  name: "test_model/model/encoder/downsample1/non-bt-2/non_bt/asym1/horiz/convolution/Conv2D"
  op: "Conv2D"
  input: "test_model/model/encoder/downsample1/non-bt-1/non_bt/res/relu/LeakyRelu/Maximum"
  input: "model/encoder/downsample1/non-bt-2/non_bt/asym1/horiz/weights/w/read"
  attr {
    key: "T"
    value {
      type: DT_FLOAT
    }
  }
  attr {
    key: "data_format"
    value {
      s: "NCHW"
    }
  }
  attr {
    key: "dilations"
    value {
      list {
        i: 1
        i: 1
        i: 1
        i: 1
      }
    }
  }
  attr {
    key: "padding"
    value {
      s: "SAME"
    }
  }
  attr {
    key: "strides"
    value {
      list {
        i: 1
        i: 1
        i: 1
        i: 1
      }
    }
  }
  attr {
    key: "use_cudnn_on_gpu"
    value {
      b: true
    }
  }
}
node {
  name: "model/encoder/downsample1/non-bt-2/non_bt/asym1/vert/weights/w/Initializer/truncated_normal/shape"
  op: "Const"
  attr {
    key: "_class"
    value {
      list {
        s: "loc:@model/encoder/downsample1/non-bt-2/non_bt/asym1/vert/weights/w"
      }
    }
  }
  attr {
    key: "dtype"
    value {
      type: DT_INT32
    }
  }
  attr {
    key: "value"
    value {
      tensor {
        dtype: DT_INT32
        tensor_shape {
          dim {
            size: 4
          }
        }
        tensor_content: "\001\000\000\000\003\000\000\000\020\000\000\000\020\000\000\000"
      }
    }
  }
}
node {
  name: "model/encoder/downsample1/non-bt-2/non_bt/asym1/vert/weights/w/Initializer/truncated_normal/mean"
  op: "Const"
  attr {
    key: "_class"
    value {
      list {
        s: "loc:@model/encoder/downsample1/non-bt-2/non_bt/asym1/vert/weights/w"
      }
    }
  }
  attr {
    key: "dtype"
    value {
      type: DT_FLOAT
    }
  }
  attr {
    key: "value"
    value {
      tensor {
        dtype: DT_FLOAT
        tensor_shape {
        }
        float_val: 0.0
      }
    }
  }
}
node {
  name: "model/encoder/downsample1/non-bt-2/non_bt/asym1/vert/weights/w/Initializer/truncated_normal/stddev"
  op: "Const"
  attr {
    key: "_class"
    value {
      list {
        s: "loc:@model/encoder/downsample1/non-bt-2/non_bt/asym1/vert/weights/w"
      }
    }
  }
  attr {
    key: "dtype"
    value {
      type: DT_FLOAT
    }
  }
  attr {
    key: "value"
    value {
      tensor {
        dtype: DT_FLOAT
        tensor_shape {
        }
        float_val: 0.14433756470680237
      }
    }
  }
}
node {
  name: "model/encoder/downsample1/non-bt-2/non_bt/asym1/vert/weights/w/Initializer/truncated_normal/TruncatedNormal"
  op: "TruncatedNormal"
  input: "model/encoder/downsample1/non-bt-2/non_bt/asym1/vert/weights/w/Initializer/truncated_normal/shape"
  attr {
    key: "T"
    value {
      type: DT_INT32
    }
  }
  attr {
    key: "_class"
    value {
      list {
        s: "loc:@model/encoder/downsample1/non-bt-2/non_bt/asym1/vert/weights/w"
      }
    }
  }
  attr {
    key: "dtype"
    value {
      type: DT_FLOAT
    }
  }
  attr {
    key: "seed"
    value {
      i: 0
    }
  }
  attr {
    key: "seed2"
    value {
      i: 0
    }
  }
}
node {
  name: "model/encoder/downsample1/non-bt-2/non_bt/asym1/vert/weights/w/Initializer/truncated_normal/mul"
  op: "Mul"
  input: "model/encoder/downsample1/non-bt-2/non_bt/asym1/vert/weights/w/Initializer/truncated_normal/TruncatedNormal"
  input: "model/encoder/downsample1/non-bt-2/non_bt/asym1/vert/weights/w/Initializer/truncated_normal/stddev"
  attr {
    key: "T"
    value {
      type: DT_FLOAT
    }
  }
  attr {
    key: "_class"
    value {
      list {
        s: "loc:@model/encoder/downsample1/non-bt-2/non_bt/asym1/vert/weights/w"
      }
    }
  }
}
node {
  name: "model/encoder/downsample1/non-bt-2/non_bt/asym1/vert/weights/w/Initializer/truncated_normal"
  op: "Add"
  input: "model/encoder/downsample1/non-bt-2/non_bt/asym1/vert/weights/w/Initializer/truncated_normal/mul"
  input: "model/encoder/downsample1/non-bt-2/non_bt/asym1/vert/weights/w/Initializer/truncated_normal/mean"
  attr {
    key: "T"
    value {
      type: DT_FLOAT
    }
  }
  attr {
    key: "_class"
    value {
      list {
        s: "loc:@model/encoder/downsample1/non-bt-2/non_bt/asym1/vert/weights/w"
      }
    }
  }
}
node {
  name: "model/encoder/downsample1/non-bt-2/non_bt/asym1/vert/weights/w"
  op: "VariableV2"
  attr {
    key: "_class"
    value {
      list {
        s: "loc:@model/encoder/downsample1/non-bt-2/non_bt/asym1/vert/weights/w"
      }
    }
  }
  attr {
    key: "container"
    value {
      s: ""
    }
  }
  attr {
    key: "dtype"
    value {
      type: DT_FLOAT
    }
  }
  attr {
    key: "shape"
    value {
      shape {
        dim {
          size: 1
        }
        dim {
          size: 3
        }
        dim {
          size: 16
        }
        dim {
          size: 16
        }
      }
    }
  }
  attr {
    key: "shared_name"
    value {
      s: ""
    }
  }
}
node {
  name: "model/encoder/downsample1/non-bt-2/non_bt/asym1/vert/weights/w/Assign"
  op: "Assign"
  input: "model/encoder/downsample1/non-bt-2/non_bt/asym1/vert/weights/w"
  input: "model/encoder/downsample1/non-bt-2/non_bt/asym1/vert/weights/w/Initializer/truncated_normal"
  attr {
    key: "T"
    value {
      type: DT_FLOAT
    }
  }
  attr {
    key: "_class"
    value {
      list {
        s: "loc:@model/encoder/downsample1/non-bt-2/non_bt/asym1/vert/weights/w"
      }
    }
  }
  attr {
    key: "use_locking"
    value {
      b: true
    }
  }
  attr {
    key: "validate_shape"
    value {
      b: true
    }
  }
}
node {
  name: "model/encoder/downsample1/non-bt-2/non_bt/asym1/vert/weights/w/read"
  op: "Identity"
  input: "model/encoder/downsample1/non-bt-2/non_bt/asym1/vert/weights/w"
  attr {
    key: "T"
    value {
      type: DT_FLOAT
    }
  }
  attr {
    key: "_class"
    value {
      list {
        s: "loc:@model/encoder/downsample1/non-bt-2/non_bt/asym1/vert/weights/w"
      }
    }
  }
}
node {
  name: "test_model/model/encoder/downsample1/non-bt-2/non_bt/asym1/vert/convolution/Conv2D"
  op: "Conv2D"
  input: "test_model/model/encoder/downsample1/non-bt-2/non_bt/asym1/horiz/convolution/Conv2D"
  input: "model/encoder/downsample1/non-bt-2/non_bt/asym1/vert/weights/w/read"
  attr {
    key: "T"
    value {
      type: DT_FLOAT
    }
  }
  attr {
    key: "data_format"
    value {
      s: "NCHW"
    }
  }
  attr {
    key: "dilations"
    value {
      list {
        i: 1
        i: 1
        i: 1
        i: 1
      }
    }
  }
  attr {
    key: "padding"
    value {
      s: "SAME"
    }
  }
  attr {
    key: "strides"
    value {
      list {
        i: 1
        i: 1
        i: 1
        i: 1
      }
    }
  }
  attr {
    key: "use_cudnn_on_gpu"
    value {
      b: true
    }
  }
}
node {
  name: "test_model/model/encoder/downsample1/non-bt-2/non_bt/asym1/vert/relu/LeakyRelu/alpha"
  op: "Const"
  attr {
    key: "dtype"
    value {
      type: DT_FLOAT
    }
  }
  attr {
    key: "value"
    value {
      tensor {
        dtype: DT_FLOAT
        tensor_shape {
        }
        float_val: 0.20000000298023224
      }
    }
  }
}
node {
  name: "test_model/model/encoder/downsample1/non-bt-2/non_bt/asym1/vert/relu/LeakyRelu/mul"
  op: "Mul"
  input: "test_model/model/encoder/downsample1/non-bt-2/non_bt/asym1/vert/relu/LeakyRelu/alpha"
  input: "test_model/model/encoder/downsample1/non-bt-2/non_bt/asym1/vert/convolution/Conv2D"
  attr {
    key: "T"
    value {
      type: DT_FLOAT
    }
  }
}
node {
  name: "test_model/model/encoder/downsample1/non-bt-2/non_bt/asym1/vert/relu/LeakyRelu/Maximum"
  op: "Maximum"
  input: "test_model/model/encoder/downsample1/non-bt-2/non_bt/asym1/vert/relu/LeakyRelu/mul"
  input: "test_model/model/encoder/downsample1/non-bt-2/non_bt/asym1/vert/convolution/Conv2D"
  attr {
    key: "T"
    value {
      type: DT_FLOAT
    }
  }
}
node {
  name: "model/encoder/downsample1/non-bt-2/non_bt/asym2/horiz/weights/w/Initializer/truncated_normal/shape"
  op: "Const"
  attr {
    key: "_class"
    value {
      list {
        s: "loc:@model/encoder/downsample1/non-bt-2/non_bt/asym2/horiz/weights/w"
      }
    }
  }
  attr {
    key: "dtype"
    value {
      type: DT_INT32
    }
  }
  attr {
    key: "value"
    value {
      tensor {
        dtype: DT_INT32
        tensor_shape {
          dim {
            size: 4
          }
        }
        tensor_content: "\003\000\000\000\001\000\000\000\020\000\000\000\020\000\000\000"
      }
    }
  }
}
node {
  name: "model/encoder/downsample1/non-bt-2/non_bt/asym2/horiz/weights/w/Initializer/truncated_normal/mean"
  op: "Const"
  attr {
    key: "_class"
    value {
      list {
        s: "loc:@model/encoder/downsample1/non-bt-2/non_bt/asym2/horiz/weights/w"
      }
    }
  }
  attr {
    key: "dtype"
    value {
      type: DT_FLOAT
    }
  }
  attr {
    key: "value"
    value {
      tensor {
        dtype: DT_FLOAT
        tensor_shape {
        }
        float_val: 0.0
      }
    }
  }
}
node {
  name: "model/encoder/downsample1/non-bt-2/non_bt/asym2/horiz/weights/w/Initializer/truncated_normal/stddev"
  op: "Const"
  attr {
    key: "_class"
    value {
      list {
        s: "loc:@model/encoder/downsample1/non-bt-2/non_bt/asym2/horiz/weights/w"
      }
    }
  }
  attr {
    key: "dtype"
    value {
      type: DT_FLOAT
    }
  }
  attr {
    key: "value"
    value {
      tensor {
        dtype: DT_FLOAT
        tensor_shape {
        }
        float_val: 0.14433756470680237
      }
    }
  }
}
node {
  name: "model/encoder/downsample1/non-bt-2/non_bt/asym2/horiz/weights/w/Initializer/truncated_normal/TruncatedNormal"
  op: "TruncatedNormal"
  input: "model/encoder/downsample1/non-bt-2/non_bt/asym2/horiz/weights/w/Initializer/truncated_normal/shape"
  attr {
    key: "T"
    value {
      type: DT_INT32
    }
  }
  attr {
    key: "_class"
    value {
      list {
        s: "loc:@model/encoder/downsample1/non-bt-2/non_bt/asym2/horiz/weights/w"
      }
    }
  }
  attr {
    key: "dtype"
    value {
      type: DT_FLOAT
    }
  }
  attr {
    key: "seed"
    value {
      i: 0
    }
  }
  attr {
    key: "seed2"
    value {
      i: 0
    }
  }
}
node {
  name: "model/encoder/downsample1/non-bt-2/non_bt/asym2/horiz/weights/w/Initializer/truncated_normal/mul"
  op: "Mul"
  input: "model/encoder/downsample1/non-bt-2/non_bt/asym2/horiz/weights/w/Initializer/truncated_normal/TruncatedNormal"
  input: "model/encoder/downsample1/non-bt-2/non_bt/asym2/horiz/weights/w/Initializer/truncated_normal/stddev"
  attr {
    key: "T"
    value {
      type: DT_FLOAT
    }
  }
  attr {
    key: "_class"
    value {
      list {
        s: "loc:@model/encoder/downsample1/non-bt-2/non_bt/asym2/horiz/weights/w"
      }
    }
  }
}
node {
  name: "model/encoder/downsample1/non-bt-2/non_bt/asym2/horiz/weights/w/Initializer/truncated_normal"
  op: "Add"
  input: "model/encoder/downsample1/non-bt-2/non_bt/asym2/horiz/weights/w/Initializer/truncated_normal/mul"
  input: "model/encoder/downsample1/non-bt-2/non_bt/asym2/horiz/weights/w/Initializer/truncated_normal/mean"
  attr {
    key: "T"
    value {
      type: DT_FLOAT
    }
  }
  attr {
    key: "_class"
    value {
      list {
        s: "loc:@model/encoder/downsample1/non-bt-2/non_bt/asym2/horiz/weights/w"
      }
    }
  }
}
node {
  name: "model/encoder/downsample1/non-bt-2/non_bt/asym2/horiz/weights/w"
  op: "VariableV2"
  attr {
    key: "_class"
    value {
      list {
        s: "loc:@model/encoder/downsample1/non-bt-2/non_bt/asym2/horiz/weights/w"
      }
    }
  }
  attr {
    key: "container"
    value {
      s: ""
    }
  }
  attr {
    key: "dtype"
    value {
      type: DT_FLOAT
    }
  }
  attr {
    key: "shape"
    value {
      shape {
        dim {
          size: 3
        }
        dim {
          size: 1
        }
        dim {
          size: 16
        }
        dim {
          size: 16
        }
      }
    }
  }
  attr {
    key: "shared_name"
    value {
      s: ""
    }
  }
}
node {
  name: "model/encoder/downsample1/non-bt-2/non_bt/asym2/horiz/weights/w/Assign"
  op: "Assign"
  input: "model/encoder/downsample1/non-bt-2/non_bt/asym2/horiz/weights/w"
  input: "model/encoder/downsample1/non-bt-2/non_bt/asym2/horiz/weights/w/Initializer/truncated_normal"
  attr {
    key: "T"
    value {
      type: DT_FLOAT
    }
  }
  attr {
    key: "_class"
    value {
      list {
        s: "loc:@model/encoder/downsample1/non-bt-2/non_bt/asym2/horiz/weights/w"
      }
    }
  }
  attr {
    key: "use_locking"
    value {
      b: true
    }
  }
  attr {
    key: "validate_shape"
    value {
      b: true
    }
  }
}
node {
  name: "model/encoder/downsample1/non-bt-2/non_bt/asym2/horiz/weights/w/read"
  op: "Identity"
  input: "model/encoder/downsample1/non-bt-2/non_bt/asym2/horiz/weights/w"
  attr {
    key: "T"
    value {
      type: DT_FLOAT
    }
  }
  attr {
    key: "_class"
    value {
      list {
        s: "loc:@model/encoder/downsample1/non-bt-2/non_bt/asym2/horiz/weights/w"
      }
    }
  }
}
node {
  name: "test_model/model/encoder/downsample1/non-bt-2/non_bt/asym2/horiz/convolution/Conv2D"
  op: "Conv2D"
  input: "test_model/model/encoder/downsample1/non-bt-2/non_bt/asym1/vert/relu/LeakyRelu/Maximum"
  input: "model/encoder/downsample1/non-bt-2/non_bt/asym2/horiz/weights/w/read"
  attr {
    key: "T"
    value {
      type: DT_FLOAT
    }
  }
  attr {
    key: "data_format"
    value {
      s: "NCHW"
    }
  }
  attr {
    key: "dilations"
    value {
      list {
        i: 1
        i: 1
        i: 1
        i: 1
      }
    }
  }
  attr {
    key: "padding"
    value {
      s: "SAME"
    }
  }
  attr {
    key: "strides"
    value {
      list {
        i: 1
        i: 1
        i: 1
        i: 1
      }
    }
  }
  attr {
    key: "use_cudnn_on_gpu"
    value {
      b: true
    }
  }
}
node {
  name: "model/encoder/downsample1/non-bt-2/non_bt/asym2/vert/weights/w/Initializer/truncated_normal/shape"
  op: "Const"
  attr {
    key: "_class"
    value {
      list {
        s: "loc:@model/encoder/downsample1/non-bt-2/non_bt/asym2/vert/weights/w"
      }
    }
  }
  attr {
    key: "dtype"
    value {
      type: DT_INT32
    }
  }
  attr {
    key: "value"
    value {
      tensor {
        dtype: DT_INT32
        tensor_shape {
          dim {
            size: 4
          }
        }
        tensor_content: "\001\000\000\000\003\000\000\000\020\000\000\000\020\000\000\000"
      }
    }
  }
}
node {
  name: "model/encoder/downsample1/non-bt-2/non_bt/asym2/vert/weights/w/Initializer/truncated_normal/mean"
  op: "Const"
  attr {
    key: "_class"
    value {
      list {
        s: "loc:@model/encoder/downsample1/non-bt-2/non_bt/asym2/vert/weights/w"
      }
    }
  }
  attr {
    key: "dtype"
    value {
      type: DT_FLOAT
    }
  }
  attr {
    key: "value"
    value {
      tensor {
        dtype: DT_FLOAT
        tensor_shape {
        }
        float_val: 0.0
      }
    }
  }
}
node {
  name: "model/encoder/downsample1/non-bt-2/non_bt/asym2/vert/weights/w/Initializer/truncated_normal/stddev"
  op: "Const"
  attr {
    key: "_class"
    value {
      list {
        s: "loc:@model/encoder/downsample1/non-bt-2/non_bt/asym2/vert/weights/w"
      }
    }
  }
  attr {
    key: "dtype"
    value {
      type: DT_FLOAT
    }
  }
  attr {
    key: "value"
    value {
      tensor {
        dtype: DT_FLOAT
        tensor_shape {
        }
        float_val: 0.14433756470680237
      }
    }
  }
}
node {
  name: "model/encoder/downsample1/non-bt-2/non_bt/asym2/vert/weights/w/Initializer/truncated_normal/TruncatedNormal"
  op: "TruncatedNormal"
  input: "model/encoder/downsample1/non-bt-2/non_bt/asym2/vert/weights/w/Initializer/truncated_normal/shape"
  attr {
    key: "T"
    value {
      type: DT_INT32
    }
  }
  attr {
    key: "_class"
    value {
      list {
        s: "loc:@model/encoder/downsample1/non-bt-2/non_bt/asym2/vert/weights/w"
      }
    }
  }
  attr {
    key: "dtype"
    value {
      type: DT_FLOAT
    }
  }
  attr {
    key: "seed"
    value {
      i: 0
    }
  }
  attr {
    key: "seed2"
    value {
      i: 0
    }
  }
}
node {
  name: "model/encoder/downsample1/non-bt-2/non_bt/asym2/vert/weights/w/Initializer/truncated_normal/mul"
  op: "Mul"
  input: "model/encoder/downsample1/non-bt-2/non_bt/asym2/vert/weights/w/Initializer/truncated_normal/TruncatedNormal"
  input: "model/encoder/downsample1/non-bt-2/non_bt/asym2/vert/weights/w/Initializer/truncated_normal/stddev"
  attr {
    key: "T"
    value {
      type: DT_FLOAT
    }
  }
  attr {
    key: "_class"
    value {
      list {
        s: "loc:@model/encoder/downsample1/non-bt-2/non_bt/asym2/vert/weights/w"
      }
    }
  }
}
node {
  name: "model/encoder/downsample1/non-bt-2/non_bt/asym2/vert/weights/w/Initializer/truncated_normal"
  op: "Add"
  input: "model/encoder/downsample1/non-bt-2/non_bt/asym2/vert/weights/w/Initializer/truncated_normal/mul"
  input: "model/encoder/downsample1/non-bt-2/non_bt/asym2/vert/weights/w/Initializer/truncated_normal/mean"
  attr {
    key: "T"
    value {
      type: DT_FLOAT
    }
  }
  attr {
    key: "_class"
    value {
      list {
        s: "loc:@model/encoder/downsample1/non-bt-2/non_bt/asym2/vert/weights/w"
      }
    }
  }
}
node {
  name: "model/encoder/downsample1/non-bt-2/non_bt/asym2/vert/weights/w"
  op: "VariableV2"
  attr {
    key: "_class"
    value {
      list {
        s: "loc:@model/encoder/downsample1/non-bt-2/non_bt/asym2/vert/weights/w"
      }
    }
  }
  attr {
    key: "container"
    value {
      s: ""
    }
  }
  attr {
    key: "dtype"
    value {
      type: DT_FLOAT
    }
  }
  attr {
    key: "shape"
    value {
      shape {
        dim {
          size: 1
        }
        dim {
          size: 3
        }
        dim {
          size: 16
        }
        dim {
          size: 16
        }
      }
    }
  }
  attr {
    key: "shared_name"
    value {
      s: ""
    }
  }
}
node {
  name: "model/encoder/downsample1/non-bt-2/non_bt/asym2/vert/weights/w/Assign"
  op: "Assign"
  input: "model/encoder/downsample1/non-bt-2/non_bt/asym2/vert/weights/w"
  input: "model/encoder/downsample1/non-bt-2/non_bt/asym2/vert/weights/w/Initializer/truncated_normal"
  attr {
    key: "T"
    value {
      type: DT_FLOAT
    }
  }
  attr {
    key: "_class"
    value {
      list {
        s: "loc:@model/encoder/downsample1/non-bt-2/non_bt/asym2/vert/weights/w"
      }
    }
  }
  attr {
    key: "use_locking"
    value {
      b: true
    }
  }
  attr {
    key: "validate_shape"
    value {
      b: true
    }
  }
}
node {
  name: "model/encoder/downsample1/non-bt-2/non_bt/asym2/vert/weights/w/read"
  op: "Identity"
  input: "model/encoder/downsample1/non-bt-2/non_bt/asym2/vert/weights/w"
  attr {
    key: "T"
    value {
      type: DT_FLOAT
    }
  }
  attr {
    key: "_class"
    value {
      list {
        s: "loc:@model/encoder/downsample1/non-bt-2/non_bt/asym2/vert/weights/w"
      }
    }
  }
}
node {
  name: "test_model/model/encoder/downsample1/non-bt-2/non_bt/asym2/vert/convolution/Conv2D"
  op: "Conv2D"
  input: "test_model/model/encoder/downsample1/non-bt-2/non_bt/asym2/horiz/convolution/Conv2D"
  input: "model/encoder/downsample1/non-bt-2/non_bt/asym2/vert/weights/w/read"
  attr {
    key: "T"
    value {
      type: DT_FLOAT
    }
  }
  attr {
    key: "data_format"
    value {
      s: "NCHW"
    }
  }
  attr {
    key: "dilations"
    value {
      list {
        i: 1
        i: 1
        i: 1
        i: 1
      }
    }
  }
  attr {
    key: "padding"
    value {
      s: "SAME"
    }
  }
  attr {
    key: "strides"
    value {
      list {
        i: 1
        i: 1
        i: 1
        i: 1
      }
    }
  }
  attr {
    key: "use_cudnn_on_gpu"
    value {
      b: true
    }
  }
}
node {
  name: "model/encoder/downsample1/non-bt-2/non_bt/batchnorm/BatchNorm/gamma/Initializer/ones/shape_as_tensor"
  op: "Const"
  attr {
    key: "_class"
    value {
      list {
        s: "loc:@model/encoder/downsample1/non-bt-2/non_bt/batchnorm/BatchNorm/gamma"
      }
    }
  }
  attr {
    key: "dtype"
    value {
      type: DT_INT32
    }
  }
  attr {
    key: "value"
    value {
      tensor {
        dtype: DT_INT32
        tensor_shape {
          dim {
            size: 1
          }
        }
        int_val: 16
      }
    }
  }
}
node {
  name: "model/encoder/downsample1/non-bt-2/non_bt/batchnorm/BatchNorm/gamma/Initializer/ones/Const"
  op: "Const"
  attr {
    key: "_class"
    value {
      list {
        s: "loc:@model/encoder/downsample1/non-bt-2/non_bt/batchnorm/BatchNorm/gamma"
      }
    }
  }
  attr {
    key: "dtype"
    value {
      type: DT_FLOAT
    }
  }
  attr {
    key: "value"
    value {
      tensor {
        dtype: DT_FLOAT
        tensor_shape {
        }
        float_val: 1.0
      }
    }
  }
}
node {
  name: "model/encoder/downsample1/non-bt-2/non_bt/batchnorm/BatchNorm/gamma/Initializer/ones"
  op: "Fill"
  input: "model/encoder/downsample1/non-bt-2/non_bt/batchnorm/BatchNorm/gamma/Initializer/ones/shape_as_tensor"
  input: "model/encoder/downsample1/non-bt-2/non_bt/batchnorm/BatchNorm/gamma/Initializer/ones/Const"
  attr {
    key: "T"
    value {
      type: DT_FLOAT
    }
  }
  attr {
    key: "_class"
    value {
      list {
        s: "loc:@model/encoder/downsample1/non-bt-2/non_bt/batchnorm/BatchNorm/gamma"
      }
    }
  }
  attr {
    key: "index_type"
    value {
      type: DT_INT32
    }
  }
}
node {
  name: "model/encoder/downsample1/non-bt-2/non_bt/batchnorm/BatchNorm/gamma"
  op: "VariableV2"
  attr {
    key: "_class"
    value {
      list {
        s: "loc:@model/encoder/downsample1/non-bt-2/non_bt/batchnorm/BatchNorm/gamma"
      }
    }
  }
  attr {
    key: "container"
    value {
      s: ""
    }
  }
  attr {
    key: "dtype"
    value {
      type: DT_FLOAT
    }
  }
  attr {
    key: "shape"
    value {
      shape {
        dim {
          size: 16
        }
      }
    }
  }
  attr {
    key: "shared_name"
    value {
      s: ""
    }
  }
}
node {
  name: "model/encoder/downsample1/non-bt-2/non_bt/batchnorm/BatchNorm/gamma/Assign"
  op: "Assign"
  input: "model/encoder/downsample1/non-bt-2/non_bt/batchnorm/BatchNorm/gamma"
  input: "model/encoder/downsample1/non-bt-2/non_bt/batchnorm/BatchNorm/gamma/Initializer/ones"
  attr {
    key: "T"
    value {
      type: DT_FLOAT
    }
  }
  attr {
    key: "_class"
    value {
      list {
        s: "loc:@model/encoder/downsample1/non-bt-2/non_bt/batchnorm/BatchNorm/gamma"
      }
    }
  }
  attr {
    key: "use_locking"
    value {
      b: true
    }
  }
  attr {
    key: "validate_shape"
    value {
      b: true
    }
  }
}
node {
  name: "model/encoder/downsample1/non-bt-2/non_bt/batchnorm/BatchNorm/gamma/read"
  op: "Identity"
  input: "model/encoder/downsample1/non-bt-2/non_bt/batchnorm/BatchNorm/gamma"
  attr {
    key: "T"
    value {
      type: DT_FLOAT
    }
  }
  attr {
    key: "_class"
    value {
      list {
        s: "loc:@model/encoder/downsample1/non-bt-2/non_bt/batchnorm/BatchNorm/gamma"
      }
    }
  }
}
node {
  name: "model/encoder/downsample1/non-bt-2/non_bt/batchnorm/BatchNorm/beta/Initializer/zeros/shape_as_tensor"
  op: "Const"
  attr {
    key: "_class"
    value {
      list {
        s: "loc:@model/encoder/downsample1/non-bt-2/non_bt/batchnorm/BatchNorm/beta"
      }
    }
  }
  attr {
    key: "dtype"
    value {
      type: DT_INT32
    }
  }
  attr {
    key: "value"
    value {
      tensor {
        dtype: DT_INT32
        tensor_shape {
          dim {
            size: 1
          }
        }
        int_val: 16
      }
    }
  }
}
node {
  name: "model/encoder/downsample1/non-bt-2/non_bt/batchnorm/BatchNorm/beta/Initializer/zeros/Const"
  op: "Const"
  attr {
    key: "_class"
    value {
      list {
        s: "loc:@model/encoder/downsample1/non-bt-2/non_bt/batchnorm/BatchNorm/beta"
      }
    }
  }
  attr {
    key: "dtype"
    value {
      type: DT_FLOAT
    }
  }
  attr {
    key: "value"
    value {
      tensor {
        dtype: DT_FLOAT
        tensor_shape {
        }
        float_val: 0.0
      }
    }
  }
}
node {
  name: "model/encoder/downsample1/non-bt-2/non_bt/batchnorm/BatchNorm/beta/Initializer/zeros"
  op: "Fill"
  input: "model/encoder/downsample1/non-bt-2/non_bt/batchnorm/BatchNorm/beta/Initializer/zeros/shape_as_tensor"
  input: "model/encoder/downsample1/non-bt-2/non_bt/batchnorm/BatchNorm/beta/Initializer/zeros/Const"
  attr {
    key: "T"
    value {
      type: DT_FLOAT
    }
  }
  attr {
    key: "_class"
    value {
      list {
        s: "loc:@model/encoder/downsample1/non-bt-2/non_bt/batchnorm/BatchNorm/beta"
      }
    }
  }
  attr {
    key: "index_type"
    value {
      type: DT_INT32
    }
  }
}
node {
  name: "model/encoder/downsample1/non-bt-2/non_bt/batchnorm/BatchNorm/beta"
  op: "VariableV2"
  attr {
    key: "_class"
    value {
      list {
        s: "loc:@model/encoder/downsample1/non-bt-2/non_bt/batchnorm/BatchNorm/beta"
      }
    }
  }
  attr {
    key: "container"
    value {
      s: ""
    }
  }
  attr {
    key: "dtype"
    value {
      type: DT_FLOAT
    }
  }
  attr {
    key: "shape"
    value {
      shape {
        dim {
          size: 16
        }
      }
    }
  }
  attr {
    key: "shared_name"
    value {
      s: ""
    }
  }
}
node {
  name: "model/encoder/downsample1/non-bt-2/non_bt/batchnorm/BatchNorm/beta/Assign"
  op: "Assign"
  input: "model/encoder/downsample1/non-bt-2/non_bt/batchnorm/BatchNorm/beta"
  input: "model/encoder/downsample1/non-bt-2/non_bt/batchnorm/BatchNorm/beta/Initializer/zeros"
  attr {
    key: "T"
    value {
      type: DT_FLOAT
    }
  }
  attr {
    key: "_class"
    value {
      list {
        s: "loc:@model/encoder/downsample1/non-bt-2/non_bt/batchnorm/BatchNorm/beta"
      }
    }
  }
  attr {
    key: "use_locking"
    value {
      b: true
    }
  }
  attr {
    key: "validate_shape"
    value {
      b: true
    }
  }
}
node {
  name: "model/encoder/downsample1/non-bt-2/non_bt/batchnorm/BatchNorm/beta/read"
  op: "Identity"
  input: "model/encoder/downsample1/non-bt-2/non_bt/batchnorm/BatchNorm/beta"
  attr {
    key: "T"
    value {
      type: DT_FLOAT
    }
  }
  attr {
    key: "_class"
    value {
      list {
        s: "loc:@model/encoder/downsample1/non-bt-2/non_bt/batchnorm/BatchNorm/beta"
      }
    }
  }
}
node {
  name: "model/encoder/downsample1/non-bt-2/non_bt/batchnorm/BatchNorm/moving_mean/Initializer/zeros/shape_as_tensor"
  op: "Const"
  attr {
    key: "_class"
    value {
      list {
        s: "loc:@model/encoder/downsample1/non-bt-2/non_bt/batchnorm/BatchNorm/moving_mean"
      }
    }
  }
  attr {
    key: "dtype"
    value {
      type: DT_INT32
    }
  }
  attr {
    key: "value"
    value {
      tensor {
        dtype: DT_INT32
        tensor_shape {
          dim {
            size: 1
          }
        }
        int_val: 16
      }
    }
  }
}
node {
  name: "model/encoder/downsample1/non-bt-2/non_bt/batchnorm/BatchNorm/moving_mean/Initializer/zeros/Const"
  op: "Const"
  attr {
    key: "_class"
    value {
      list {
        s: "loc:@model/encoder/downsample1/non-bt-2/non_bt/batchnorm/BatchNorm/moving_mean"
      }
    }
  }
  attr {
    key: "dtype"
    value {
      type: DT_FLOAT
    }
  }
  attr {
    key: "value"
    value {
      tensor {
        dtype: DT_FLOAT
        tensor_shape {
        }
        float_val: 0.0
      }
    }
  }
}
node {
  name: "model/encoder/downsample1/non-bt-2/non_bt/batchnorm/BatchNorm/moving_mean/Initializer/zeros"
  op: "Fill"
  input: "model/encoder/downsample1/non-bt-2/non_bt/batchnorm/BatchNorm/moving_mean/Initializer/zeros/shape_as_tensor"
  input: "model/encoder/downsample1/non-bt-2/non_bt/batchnorm/BatchNorm/moving_mean/Initializer/zeros/Const"
  attr {
    key: "T"
    value {
      type: DT_FLOAT
    }
  }
  attr {
    key: "_class"
    value {
      list {
        s: "loc:@model/encoder/downsample1/non-bt-2/non_bt/batchnorm/BatchNorm/moving_mean"
      }
    }
  }
  attr {
    key: "index_type"
    value {
      type: DT_INT32
    }
  }
}
node {
  name: "model/encoder/downsample1/non-bt-2/non_bt/batchnorm/BatchNorm/moving_mean"
  op: "VariableV2"
  attr {
    key: "_class"
    value {
      list {
        s: "loc:@model/encoder/downsample1/non-bt-2/non_bt/batchnorm/BatchNorm/moving_mean"
      }
    }
  }
  attr {
    key: "container"
    value {
      s: ""
    }
  }
  attr {
    key: "dtype"
    value {
      type: DT_FLOAT
    }
  }
  attr {
    key: "shape"
    value {
      shape {
        dim {
          size: 16
        }
      }
    }
  }
  attr {
    key: "shared_name"
    value {
      s: ""
    }
  }
}
node {
  name: "model/encoder/downsample1/non-bt-2/non_bt/batchnorm/BatchNorm/moving_mean/Assign"
  op: "Assign"
  input: "model/encoder/downsample1/non-bt-2/non_bt/batchnorm/BatchNorm/moving_mean"
  input: "model/encoder/downsample1/non-bt-2/non_bt/batchnorm/BatchNorm/moving_mean/Initializer/zeros"
  attr {
    key: "T"
    value {
      type: DT_FLOAT
    }
  }
  attr {
    key: "_class"
    value {
      list {
        s: "loc:@model/encoder/downsample1/non-bt-2/non_bt/batchnorm/BatchNorm/moving_mean"
      }
    }
  }
  attr {
    key: "use_locking"
    value {
      b: true
    }
  }
  attr {
    key: "validate_shape"
    value {
      b: true
    }
  }
}
node {
  name: "model/encoder/downsample1/non-bt-2/non_bt/batchnorm/BatchNorm/moving_mean/read"
  op: "Identity"
  input: "model/encoder/downsample1/non-bt-2/non_bt/batchnorm/BatchNorm/moving_mean"
  attr {
    key: "T"
    value {
      type: DT_FLOAT
    }
  }
  attr {
    key: "_class"
    value {
      list {
        s: "loc:@model/encoder/downsample1/non-bt-2/non_bt/batchnorm/BatchNorm/moving_mean"
      }
    }
  }
}
node {
  name: "model/encoder/downsample1/non-bt-2/non_bt/batchnorm/BatchNorm/moving_variance/Initializer/ones/shape_as_tensor"
  op: "Const"
  attr {
    key: "_class"
    value {
      list {
        s: "loc:@model/encoder/downsample1/non-bt-2/non_bt/batchnorm/BatchNorm/moving_variance"
      }
    }
  }
  attr {
    key: "dtype"
    value {
      type: DT_INT32
    }
  }
  attr {
    key: "value"
    value {
      tensor {
        dtype: DT_INT32
        tensor_shape {
          dim {
            size: 1
          }
        }
        int_val: 16
      }
    }
  }
}
node {
  name: "model/encoder/downsample1/non-bt-2/non_bt/batchnorm/BatchNorm/moving_variance/Initializer/ones/Const"
  op: "Const"
  attr {
    key: "_class"
    value {
      list {
        s: "loc:@model/encoder/downsample1/non-bt-2/non_bt/batchnorm/BatchNorm/moving_variance"
      }
    }
  }
  attr {
    key: "dtype"
    value {
      type: DT_FLOAT
    }
  }
  attr {
    key: "value"
    value {
      tensor {
        dtype: DT_FLOAT
        tensor_shape {
        }
        float_val: 1.0
      }
    }
  }
}
node {
  name: "model/encoder/downsample1/non-bt-2/non_bt/batchnorm/BatchNorm/moving_variance/Initializer/ones"
  op: "Fill"
  input: "model/encoder/downsample1/non-bt-2/non_bt/batchnorm/BatchNorm/moving_variance/Initializer/ones/shape_as_tensor"
  input: "model/encoder/downsample1/non-bt-2/non_bt/batchnorm/BatchNorm/moving_variance/Initializer/ones/Const"
  attr {
    key: "T"
    value {
      type: DT_FLOAT
    }
  }
  attr {
    key: "_class"
    value {
      list {
        s: "loc:@model/encoder/downsample1/non-bt-2/non_bt/batchnorm/BatchNorm/moving_variance"
      }
    }
  }
  attr {
    key: "index_type"
    value {
      type: DT_INT32
    }
  }
}
node {
  name: "model/encoder/downsample1/non-bt-2/non_bt/batchnorm/BatchNorm/moving_variance"
  op: "VariableV2"
  attr {
    key: "_class"
    value {
      list {
        s: "loc:@model/encoder/downsample1/non-bt-2/non_bt/batchnorm/BatchNorm/moving_variance"
      }
    }
  }
  attr {
    key: "container"
    value {
      s: ""
    }
  }
  attr {
    key: "dtype"
    value {
      type: DT_FLOAT
    }
  }
  attr {
    key: "shape"
    value {
      shape {
        dim {
          size: 16
        }
      }
    }
  }
  attr {
    key: "shared_name"
    value {
      s: ""
    }
  }
}
node {
  name: "model/encoder/downsample1/non-bt-2/non_bt/batchnorm/BatchNorm/moving_variance/Assign"
  op: "Assign"
  input: "model/encoder/downsample1/non-bt-2/non_bt/batchnorm/BatchNorm/moving_variance"
  input: "model/encoder/downsample1/non-bt-2/non_bt/batchnorm/BatchNorm/moving_variance/Initializer/ones"
  attr {
    key: "T"
    value {
      type: DT_FLOAT
    }
  }
  attr {
    key: "_class"
    value {
      list {
        s: "loc:@model/encoder/downsample1/non-bt-2/non_bt/batchnorm/BatchNorm/moving_variance"
      }
    }
  }
  attr {
    key: "use_locking"
    value {
      b: true
    }
  }
  attr {
    key: "validate_shape"
    value {
      b: true
    }
  }
}
node {
  name: "model/encoder/downsample1/non-bt-2/non_bt/batchnorm/BatchNorm/moving_variance/read"
  op: "Identity"
  input: "model/encoder/downsample1/non-bt-2/non_bt/batchnorm/BatchNorm/moving_variance"
  attr {
    key: "T"
    value {
      type: DT_FLOAT
    }
  }
  attr {
    key: "_class"
    value {
      list {
        s: "loc:@model/encoder/downsample1/non-bt-2/non_bt/batchnorm/BatchNorm/moving_variance"
      }
    }
  }
}
node {
  name: "test_model/model/encoder/downsample1/non-bt-2/non_bt/batchnorm/BatchNorm/FusedBatchNorm"
  op: "FusedBatchNorm"
  input: "test_model/model/encoder/downsample1/non-bt-2/non_bt/asym2/vert/convolution/Conv2D"
  input: "model/encoder/downsample1/non-bt-2/non_bt/batchnorm/BatchNorm/gamma/read"
  input: "model/encoder/downsample1/non-bt-2/non_bt/batchnorm/BatchNorm/beta/read"
  input: "model/encoder/downsample1/non-bt-2/non_bt/batchnorm/BatchNorm/moving_mean/read"
  input: "model/encoder/downsample1/non-bt-2/non_bt/batchnorm/BatchNorm/moving_variance/read"
  attr {
    key: "T"
    value {
      type: DT_FLOAT
    }
  }
  attr {
    key: "data_format"
    value {
      s: "NCHW"
    }
  }
  attr {
    key: "epsilon"
    value {
      f: 0.0010000000474974513
    }
  }
  attr {
    key: "is_training"
    value {
      b: false
    }
  }
}
node {
  name: "test_model/model/encoder/downsample1/non-bt-2/non_bt/batchnorm/BatchNorm/Const"
  op: "Const"
  attr {
    key: "dtype"
    value {
      type: DT_FLOAT
    }
  }
  attr {
    key: "value"
    value {
      tensor {
        dtype: DT_FLOAT
        tensor_shape {
        }
        float_val: 0.10000000149011612
      }
    }
  }
}
node {
  name: "test_model/model/encoder/downsample1/non-bt-2/non_bt/res/relu/add"
  op: "Add"
  input: "test_model/model/encoder/downsample1/non-bt-1/non_bt/res/relu/LeakyRelu/Maximum"
  input: "test_model/model/encoder/downsample1/non-bt-2/non_bt/batchnorm/BatchNorm/FusedBatchNorm"
  attr {
    key: "T"
    value {
      type: DT_FLOAT
    }
  }
}
node {
  name: "test_model/model/encoder/downsample1/non-bt-2/non_bt/res/relu/LeakyRelu/alpha"
  op: "Const"
  attr {
    key: "dtype"
    value {
      type: DT_FLOAT
    }
  }
  attr {
    key: "value"
    value {
      tensor {
        dtype: DT_FLOAT
        tensor_shape {
        }
        float_val: 0.20000000298023224
      }
    }
  }
}
node {
  name: "test_model/model/encoder/downsample1/non-bt-2/non_bt/res/relu/LeakyRelu/mul"
  op: "Mul"
  input: "test_model/model/encoder/downsample1/non-bt-2/non_bt/res/relu/LeakyRelu/alpha"
  input: "test_model/model/encoder/downsample1/non-bt-2/non_bt/res/relu/add"
  attr {
    key: "T"
    value {
      type: DT_FLOAT
    }
  }
}
node {
  name: "test_model/model/encoder/downsample1/non-bt-2/non_bt/res/relu/LeakyRelu/Maximum"
  op: "Maximum"
  input: "test_model/model/encoder/downsample1/non-bt-2/non_bt/res/relu/LeakyRelu/mul"
  input: "test_model/model/encoder/downsample1/non-bt-2/non_bt/res/relu/add"
  attr {
    key: "T"
    value {
      type: DT_FLOAT
    }
  }
}
node {
  name: "model/encoder/downsample2/downsample/conv/weights/w/Initializer/truncated_normal/shape"
  op: "Const"
  attr {
    key: "_class"
    value {
      list {
        s: "loc:@model/encoder/downsample2/downsample/conv/weights/w"
      }
    }
  }
  attr {
    key: "dtype"
    value {
      type: DT_INT32
    }
  }
  attr {
    key: "value"
    value {
      tensor {
        dtype: DT_INT32
        tensor_shape {
          dim {
            size: 4
          }
        }
        tensor_content: "\005\000\000\000\005\000\000\000\020\000\000\000 \000\000\000"
      }
    }
  }
}
node {
  name: "model/encoder/downsample2/downsample/conv/weights/w/Initializer/truncated_normal/mean"
  op: "Const"
  attr {
    key: "_class"
    value {
      list {
        s: "loc:@model/encoder/downsample2/downsample/conv/weights/w"
      }
    }
  }
  attr {
    key: "dtype"
    value {
      type: DT_FLOAT
    }
  }
  attr {
    key: "value"
    value {
      tensor {
        dtype: DT_FLOAT
        tensor_shape {
        }
        float_val: 0.0
      }
    }
  }
}
node {
  name: "model/encoder/downsample2/downsample/conv/weights/w/Initializer/truncated_normal/stddev"
  op: "Const"
  attr {
    key: "_class"
    value {
      list {
        s: "loc:@model/encoder/downsample2/downsample/conv/weights/w"
      }
    }
  }
  attr {
    key: "dtype"
    value {
      type: DT_FLOAT
    }
  }
  attr {
    key: "value"
    value {
      tensor {
        dtype: DT_FLOAT
        tensor_shape {
        }
        float_val: 0.05000000074505806
      }
    }
  }
}
node {
  name: "model/encoder/downsample2/downsample/conv/weights/w/Initializer/truncated_normal/TruncatedNormal"
  op: "TruncatedNormal"
  input: "model/encoder/downsample2/downsample/conv/weights/w/Initializer/truncated_normal/shape"
  attr {
    key: "T"
    value {
      type: DT_INT32
    }
  }
  attr {
    key: "_class"
    value {
      list {
        s: "loc:@model/encoder/downsample2/downsample/conv/weights/w"
      }
    }
  }
  attr {
    key: "dtype"
    value {
      type: DT_FLOAT
    }
  }
  attr {
    key: "seed"
    value {
      i: 0
    }
  }
  attr {
    key: "seed2"
    value {
      i: 0
    }
  }
}
node {
  name: "model/encoder/downsample2/downsample/conv/weights/w/Initializer/truncated_normal/mul"
  op: "Mul"
  input: "model/encoder/downsample2/downsample/conv/weights/w/Initializer/truncated_normal/TruncatedNormal"
  input: "model/encoder/downsample2/downsample/conv/weights/w/Initializer/truncated_normal/stddev"
  attr {
    key: "T"
    value {
      type: DT_FLOAT
    }
  }
  attr {
    key: "_class"
    value {
      list {
        s: "loc:@model/encoder/downsample2/downsample/conv/weights/w"
      }
    }
  }
}
node {
  name: "model/encoder/downsample2/downsample/conv/weights/w/Initializer/truncated_normal"
  op: "Add"
  input: "model/encoder/downsample2/downsample/conv/weights/w/Initializer/truncated_normal/mul"
  input: "model/encoder/downsample2/downsample/conv/weights/w/Initializer/truncated_normal/mean"
  attr {
    key: "T"
    value {
      type: DT_FLOAT
    }
  }
  attr {
    key: "_class"
    value {
      list {
        s: "loc:@model/encoder/downsample2/downsample/conv/weights/w"
      }
    }
  }
}
node {
  name: "model/encoder/downsample2/downsample/conv/weights/w"
  op: "VariableV2"
  attr {
    key: "_class"
    value {
      list {
        s: "loc:@model/encoder/downsample2/downsample/conv/weights/w"
      }
    }
  }
  attr {
    key: "container"
    value {
      s: ""
    }
  }
  attr {
    key: "dtype"
    value {
      type: DT_FLOAT
    }
  }
  attr {
    key: "shape"
    value {
      shape {
        dim {
          size: 5
        }
        dim {
          size: 5
        }
        dim {
          size: 16
        }
        dim {
          size: 32
        }
      }
    }
  }
  attr {
    key: "shared_name"
    value {
      s: ""
    }
  }
}
node {
  name: "model/encoder/downsample2/downsample/conv/weights/w/Assign"
  op: "Assign"
  input: "model/encoder/downsample2/downsample/conv/weights/w"
  input: "model/encoder/downsample2/downsample/conv/weights/w/Initializer/truncated_normal"
  attr {
    key: "T"
    value {
      type: DT_FLOAT
    }
  }
  attr {
    key: "_class"
    value {
      list {
        s: "loc:@model/encoder/downsample2/downsample/conv/weights/w"
      }
    }
  }
  attr {
    key: "use_locking"
    value {
      b: true
    }
  }
  attr {
    key: "validate_shape"
    value {
      b: true
    }
  }
}
node {
  name: "model/encoder/downsample2/downsample/conv/weights/w/read"
  op: "Identity"
  input: "model/encoder/downsample2/downsample/conv/weights/w"
  attr {
    key: "T"
    value {
      type: DT_FLOAT
    }
  }
  attr {
    key: "_class"
    value {
      list {
        s: "loc:@model/encoder/downsample2/downsample/conv/weights/w"
      }
    }
  }
}
node {
  name: "test_model/model/encoder/downsample2/downsample/conv/convolution/Conv2D"
  op: "Conv2D"
  input: "test_model/model/encoder/downsample1/non-bt-2/non_bt/res/relu/LeakyRelu/Maximum"
  input: "model/encoder/downsample2/downsample/conv/weights/w/read"
  attr {
    key: "T"
    value {
      type: DT_FLOAT
    }
  }
  attr {
    key: "data_format"
    value {
      s: "NCHW"
    }
  }
  attr {
    key: "dilations"
    value {
      list {
        i: 1
        i: 1
        i: 1
        i: 1
      }
    }
  }
  attr {
    key: "padding"
    value {
      s: "SAME"
    }
  }
  attr {
    key: "strides"
    value {
      list {
        i: 1
        i: 1
        i: 2
        i: 2
      }
    }
  }
  attr {
    key: "use_cudnn_on_gpu"
    value {
      b: true
    }
  }
}
node {
  name: "model/encoder/downsample2/downsample/conv/batchnorm/BatchNorm/gamma/Initializer/ones/shape_as_tensor"
  op: "Const"
  attr {
    key: "_class"
    value {
      list {
        s: "loc:@model/encoder/downsample2/downsample/conv/batchnorm/BatchNorm/gamma"
      }
    }
  }
  attr {
    key: "dtype"
    value {
      type: DT_INT32
    }
  }
  attr {
    key: "value"
    value {
      tensor {
        dtype: DT_INT32
        tensor_shape {
          dim {
            size: 1
          }
        }
        int_val: 32
      }
    }
  }
}
node {
  name: "model/encoder/downsample2/downsample/conv/batchnorm/BatchNorm/gamma/Initializer/ones/Const"
  op: "Const"
  attr {
    key: "_class"
    value {
      list {
        s: "loc:@model/encoder/downsample2/downsample/conv/batchnorm/BatchNorm/gamma"
      }
    }
  }
  attr {
    key: "dtype"
    value {
      type: DT_FLOAT
    }
  }
  attr {
    key: "value"
    value {
      tensor {
        dtype: DT_FLOAT
        tensor_shape {
        }
        float_val: 1.0
      }
    }
  }
}
node {
  name: "model/encoder/downsample2/downsample/conv/batchnorm/BatchNorm/gamma/Initializer/ones"
  op: "Fill"
  input: "model/encoder/downsample2/downsample/conv/batchnorm/BatchNorm/gamma/Initializer/ones/shape_as_tensor"
  input: "model/encoder/downsample2/downsample/conv/batchnorm/BatchNorm/gamma/Initializer/ones/Const"
  attr {
    key: "T"
    value {
      type: DT_FLOAT
    }
  }
  attr {
    key: "_class"
    value {
      list {
        s: "loc:@model/encoder/downsample2/downsample/conv/batchnorm/BatchNorm/gamma"
      }
    }
  }
  attr {
    key: "index_type"
    value {
      type: DT_INT32
    }
  }
}
node {
  name: "model/encoder/downsample2/downsample/conv/batchnorm/BatchNorm/gamma"
  op: "VariableV2"
  attr {
    key: "_class"
    value {
      list {
        s: "loc:@model/encoder/downsample2/downsample/conv/batchnorm/BatchNorm/gamma"
      }
    }
  }
  attr {
    key: "container"
    value {
      s: ""
    }
  }
  attr {
    key: "dtype"
    value {
      type: DT_FLOAT
    }
  }
  attr {
    key: "shape"
    value {
      shape {
        dim {
          size: 32
        }
      }
    }
  }
  attr {
    key: "shared_name"
    value {
      s: ""
    }
  }
}
node {
  name: "model/encoder/downsample2/downsample/conv/batchnorm/BatchNorm/gamma/Assign"
  op: "Assign"
  input: "model/encoder/downsample2/downsample/conv/batchnorm/BatchNorm/gamma"
  input: "model/encoder/downsample2/downsample/conv/batchnorm/BatchNorm/gamma/Initializer/ones"
  attr {
    key: "T"
    value {
      type: DT_FLOAT
    }
  }
  attr {
    key: "_class"
    value {
      list {
        s: "loc:@model/encoder/downsample2/downsample/conv/batchnorm/BatchNorm/gamma"
      }
    }
  }
  attr {
    key: "use_locking"
    value {
      b: true
    }
  }
  attr {
    key: "validate_shape"
    value {
      b: true
    }
  }
}
node {
  name: "model/encoder/downsample2/downsample/conv/batchnorm/BatchNorm/gamma/read"
  op: "Identity"
  input: "model/encoder/downsample2/downsample/conv/batchnorm/BatchNorm/gamma"
  attr {
    key: "T"
    value {
      type: DT_FLOAT
    }
  }
  attr {
    key: "_class"
    value {
      list {
        s: "loc:@model/encoder/downsample2/downsample/conv/batchnorm/BatchNorm/gamma"
      }
    }
  }
}
node {
  name: "model/encoder/downsample2/downsample/conv/batchnorm/BatchNorm/beta/Initializer/zeros/shape_as_tensor"
  op: "Const"
  attr {
    key: "_class"
    value {
      list {
        s: "loc:@model/encoder/downsample2/downsample/conv/batchnorm/BatchNorm/beta"
      }
    }
  }
  attr {
    key: "dtype"
    value {
      type: DT_INT32
    }
  }
  attr {
    key: "value"
    value {
      tensor {
        dtype: DT_INT32
        tensor_shape {
          dim {
            size: 1
          }
        }
        int_val: 32
      }
    }
  }
}
node {
  name: "model/encoder/downsample2/downsample/conv/batchnorm/BatchNorm/beta/Initializer/zeros/Const"
  op: "Const"
  attr {
    key: "_class"
    value {
      list {
        s: "loc:@model/encoder/downsample2/downsample/conv/batchnorm/BatchNorm/beta"
      }
    }
  }
  attr {
    key: "dtype"
    value {
      type: DT_FLOAT
    }
  }
  attr {
    key: "value"
    value {
      tensor {
        dtype: DT_FLOAT
        tensor_shape {
        }
        float_val: 0.0
      }
    }
  }
}
node {
  name: "model/encoder/downsample2/downsample/conv/batchnorm/BatchNorm/beta/Initializer/zeros"
  op: "Fill"
  input: "model/encoder/downsample2/downsample/conv/batchnorm/BatchNorm/beta/Initializer/zeros/shape_as_tensor"
  input: "model/encoder/downsample2/downsample/conv/batchnorm/BatchNorm/beta/Initializer/zeros/Const"
  attr {
    key: "T"
    value {
      type: DT_FLOAT
    }
  }
  attr {
    key: "_class"
    value {
      list {
        s: "loc:@model/encoder/downsample2/downsample/conv/batchnorm/BatchNorm/beta"
      }
    }
  }
  attr {
    key: "index_type"
    value {
      type: DT_INT32
    }
  }
}
node {
  name: "model/encoder/downsample2/downsample/conv/batchnorm/BatchNorm/beta"
  op: "VariableV2"
  attr {
    key: "_class"
    value {
      list {
        s: "loc:@model/encoder/downsample2/downsample/conv/batchnorm/BatchNorm/beta"
      }
    }
  }
  attr {
    key: "container"
    value {
      s: ""
    }
  }
  attr {
    key: "dtype"
    value {
      type: DT_FLOAT
    }
  }
  attr {
    key: "shape"
    value {
      shape {
        dim {
          size: 32
        }
      }
    }
  }
  attr {
    key: "shared_name"
    value {
      s: ""
    }
  }
}
node {
  name: "model/encoder/downsample2/downsample/conv/batchnorm/BatchNorm/beta/Assign"
  op: "Assign"
  input: "model/encoder/downsample2/downsample/conv/batchnorm/BatchNorm/beta"
  input: "model/encoder/downsample2/downsample/conv/batchnorm/BatchNorm/beta/Initializer/zeros"
  attr {
    key: "T"
    value {
      type: DT_FLOAT
    }
  }
  attr {
    key: "_class"
    value {
      list {
        s: "loc:@model/encoder/downsample2/downsample/conv/batchnorm/BatchNorm/beta"
      }
    }
  }
  attr {
    key: "use_locking"
    value {
      b: true
    }
  }
  attr {
    key: "validate_shape"
    value {
      b: true
    }
  }
}
node {
  name: "model/encoder/downsample2/downsample/conv/batchnorm/BatchNorm/beta/read"
  op: "Identity"
  input: "model/encoder/downsample2/downsample/conv/batchnorm/BatchNorm/beta"
  attr {
    key: "T"
    value {
      type: DT_FLOAT
    }
  }
  attr {
    key: "_class"
    value {
      list {
        s: "loc:@model/encoder/downsample2/downsample/conv/batchnorm/BatchNorm/beta"
      }
    }
  }
}
node {
  name: "model/encoder/downsample2/downsample/conv/batchnorm/BatchNorm/moving_mean/Initializer/zeros/shape_as_tensor"
  op: "Const"
  attr {
    key: "_class"
    value {
      list {
        s: "loc:@model/encoder/downsample2/downsample/conv/batchnorm/BatchNorm/moving_mean"
      }
    }
  }
  attr {
    key: "dtype"
    value {
      type: DT_INT32
    }
  }
  attr {
    key: "value"
    value {
      tensor {
        dtype: DT_INT32
        tensor_shape {
          dim {
            size: 1
          }
        }
        int_val: 32
      }
    }
  }
}
node {
  name: "model/encoder/downsample2/downsample/conv/batchnorm/BatchNorm/moving_mean/Initializer/zeros/Const"
  op: "Const"
  attr {
    key: "_class"
    value {
      list {
        s: "loc:@model/encoder/downsample2/downsample/conv/batchnorm/BatchNorm/moving_mean"
      }
    }
  }
  attr {
    key: "dtype"
    value {
      type: DT_FLOAT
    }
  }
  attr {
    key: "value"
    value {
      tensor {
        dtype: DT_FLOAT
        tensor_shape {
        }
        float_val: 0.0
      }
    }
  }
}
node {
  name: "model/encoder/downsample2/downsample/conv/batchnorm/BatchNorm/moving_mean/Initializer/zeros"
  op: "Fill"
  input: "model/encoder/downsample2/downsample/conv/batchnorm/BatchNorm/moving_mean/Initializer/zeros/shape_as_tensor"
  input: "model/encoder/downsample2/downsample/conv/batchnorm/BatchNorm/moving_mean/Initializer/zeros/Const"
  attr {
    key: "T"
    value {
      type: DT_FLOAT
    }
  }
  attr {
    key: "_class"
    value {
      list {
        s: "loc:@model/encoder/downsample2/downsample/conv/batchnorm/BatchNorm/moving_mean"
      }
    }
  }
  attr {
    key: "index_type"
    value {
      type: DT_INT32
    }
  }
}
node {
  name: "model/encoder/downsample2/downsample/conv/batchnorm/BatchNorm/moving_mean"
  op: "VariableV2"
  attr {
    key: "_class"
    value {
      list {
        s: "loc:@model/encoder/downsample2/downsample/conv/batchnorm/BatchNorm/moving_mean"
      }
    }
  }
  attr {
    key: "container"
    value {
      s: ""
    }
  }
  attr {
    key: "dtype"
    value {
      type: DT_FLOAT
    }
  }
  attr {
    key: "shape"
    value {
      shape {
        dim {
          size: 32
        }
      }
    }
  }
  attr {
    key: "shared_name"
    value {
      s: ""
    }
  }
}
node {
  name: "model/encoder/downsample2/downsample/conv/batchnorm/BatchNorm/moving_mean/Assign"
  op: "Assign"
  input: "model/encoder/downsample2/downsample/conv/batchnorm/BatchNorm/moving_mean"
  input: "model/encoder/downsample2/downsample/conv/batchnorm/BatchNorm/moving_mean/Initializer/zeros"
  attr {
    key: "T"
    value {
      type: DT_FLOAT
    }
  }
  attr {
    key: "_class"
    value {
      list {
        s: "loc:@model/encoder/downsample2/downsample/conv/batchnorm/BatchNorm/moving_mean"
      }
    }
  }
  attr {
    key: "use_locking"
    value {
      b: true
    }
  }
  attr {
    key: "validate_shape"
    value {
      b: true
    }
  }
}
node {
  name: "model/encoder/downsample2/downsample/conv/batchnorm/BatchNorm/moving_mean/read"
  op: "Identity"
  input: "model/encoder/downsample2/downsample/conv/batchnorm/BatchNorm/moving_mean"
  attr {
    key: "T"
    value {
      type: DT_FLOAT
    }
  }
  attr {
    key: "_class"
    value {
      list {
        s: "loc:@model/encoder/downsample2/downsample/conv/batchnorm/BatchNorm/moving_mean"
      }
    }
  }
}
node {
  name: "model/encoder/downsample2/downsample/conv/batchnorm/BatchNorm/moving_variance/Initializer/ones/shape_as_tensor"
  op: "Const"
  attr {
    key: "_class"
    value {
      list {
        s: "loc:@model/encoder/downsample2/downsample/conv/batchnorm/BatchNorm/moving_variance"
      }
    }
  }
  attr {
    key: "dtype"
    value {
      type: DT_INT32
    }
  }
  attr {
    key: "value"
    value {
      tensor {
        dtype: DT_INT32
        tensor_shape {
          dim {
            size: 1
          }
        }
        int_val: 32
      }
    }
  }
}
node {
  name: "model/encoder/downsample2/downsample/conv/batchnorm/BatchNorm/moving_variance/Initializer/ones/Const"
  op: "Const"
  attr {
    key: "_class"
    value {
      list {
        s: "loc:@model/encoder/downsample2/downsample/conv/batchnorm/BatchNorm/moving_variance"
      }
    }
  }
  attr {
    key: "dtype"
    value {
      type: DT_FLOAT
    }
  }
  attr {
    key: "value"
    value {
      tensor {
        dtype: DT_FLOAT
        tensor_shape {
        }
        float_val: 1.0
      }
    }
  }
}
node {
  name: "model/encoder/downsample2/downsample/conv/batchnorm/BatchNorm/moving_variance/Initializer/ones"
  op: "Fill"
  input: "model/encoder/downsample2/downsample/conv/batchnorm/BatchNorm/moving_variance/Initializer/ones/shape_as_tensor"
  input: "model/encoder/downsample2/downsample/conv/batchnorm/BatchNorm/moving_variance/Initializer/ones/Const"
  attr {
    key: "T"
    value {
      type: DT_FLOAT
    }
  }
  attr {
    key: "_class"
    value {
      list {
        s: "loc:@model/encoder/downsample2/downsample/conv/batchnorm/BatchNorm/moving_variance"
      }
    }
  }
  attr {
    key: "index_type"
    value {
      type: DT_INT32
    }
  }
}
node {
  name: "model/encoder/downsample2/downsample/conv/batchnorm/BatchNorm/moving_variance"
  op: "VariableV2"
  attr {
    key: "_class"
    value {
      list {
        s: "loc:@model/encoder/downsample2/downsample/conv/batchnorm/BatchNorm/moving_variance"
      }
    }
  }
  attr {
    key: "container"
    value {
      s: ""
    }
  }
  attr {
    key: "dtype"
    value {
      type: DT_FLOAT
    }
  }
  attr {
    key: "shape"
    value {
      shape {
        dim {
          size: 32
        }
      }
    }
  }
  attr {
    key: "shared_name"
    value {
      s: ""
    }
  }
}
node {
  name: "model/encoder/downsample2/downsample/conv/batchnorm/BatchNorm/moving_variance/Assign"
  op: "Assign"
  input: "model/encoder/downsample2/downsample/conv/batchnorm/BatchNorm/moving_variance"
  input: "model/encoder/downsample2/downsample/conv/batchnorm/BatchNorm/moving_variance/Initializer/ones"
  attr {
    key: "T"
    value {
      type: DT_FLOAT
    }
  }
  attr {
    key: "_class"
    value {
      list {
        s: "loc:@model/encoder/downsample2/downsample/conv/batchnorm/BatchNorm/moving_variance"
      }
    }
  }
  attr {
    key: "use_locking"
    value {
      b: true
    }
  }
  attr {
    key: "validate_shape"
    value {
      b: true
    }
  }
}
node {
  name: "model/encoder/downsample2/downsample/conv/batchnorm/BatchNorm/moving_variance/read"
  op: "Identity"
  input: "model/encoder/downsample2/downsample/conv/batchnorm/BatchNorm/moving_variance"
  attr {
    key: "T"
    value {
      type: DT_FLOAT
    }
  }
  attr {
    key: "_class"
    value {
      list {
        s: "loc:@model/encoder/downsample2/downsample/conv/batchnorm/BatchNorm/moving_variance"
      }
    }
  }
}
node {
  name: "test_model/model/encoder/downsample2/downsample/conv/batchnorm/BatchNorm/FusedBatchNorm"
  op: "FusedBatchNorm"
  input: "test_model/model/encoder/downsample2/downsample/conv/convolution/Conv2D"
  input: "model/encoder/downsample2/downsample/conv/batchnorm/BatchNorm/gamma/read"
  input: "model/encoder/downsample2/downsample/conv/batchnorm/BatchNorm/beta/read"
  input: "model/encoder/downsample2/downsample/conv/batchnorm/BatchNorm/moving_mean/read"
  input: "model/encoder/downsample2/downsample/conv/batchnorm/BatchNorm/moving_variance/read"
  attr {
    key: "T"
    value {
      type: DT_FLOAT
    }
  }
  attr {
    key: "data_format"
    value {
      s: "NCHW"
    }
  }
  attr {
    key: "epsilon"
    value {
      f: 0.0010000000474974513
    }
  }
  attr {
    key: "is_training"
    value {
      b: false
    }
  }
}
node {
  name: "test_model/model/encoder/downsample2/downsample/conv/batchnorm/BatchNorm/Const"
  op: "Const"
  attr {
    key: "dtype"
    value {
      type: DT_FLOAT
    }
  }
  attr {
    key: "value"
    value {
      tensor {
        dtype: DT_FLOAT
        tensor_shape {
        }
        float_val: 0.05000000074505806
      }
    }
  }
}
node {
  name: "test_model/model/encoder/downsample2/downsample/conv/relu/LeakyRelu/alpha"
  op: "Const"
  attr {
    key: "dtype"
    value {
      type: DT_FLOAT
    }
  }
  attr {
    key: "value"
    value {
      tensor {
        dtype: DT_FLOAT
        tensor_shape {
        }
        float_val: 0.20000000298023224
      }
    }
  }
}
node {
  name: "test_model/model/encoder/downsample2/downsample/conv/relu/LeakyRelu/mul"
  op: "Mul"
  input: "test_model/model/encoder/downsample2/downsample/conv/relu/LeakyRelu/alpha"
  input: "test_model/model/encoder/downsample2/downsample/conv/batchnorm/BatchNorm/FusedBatchNorm"
  attr {
    key: "T"
    value {
      type: DT_FLOAT
    }
  }
}
node {
  name: "test_model/model/encoder/downsample2/downsample/conv/relu/LeakyRelu/Maximum"
  op: "Maximum"
  input: "test_model/model/encoder/downsample2/downsample/conv/relu/LeakyRelu/mul"
  input: "test_model/model/encoder/downsample2/downsample/conv/batchnorm/BatchNorm/FusedBatchNorm"
  attr {
    key: "T"
    value {
      type: DT_FLOAT
    }
  }
}
node {
  name: "test_model/model/encoder/downsample2/downsample/pool/MaxPool"
  op: "MaxPool"
  input: "test_model/model/encoder/downsample1/non-bt-2/non_bt/res/relu/LeakyRelu/Maximum"
  attr {
    key: "T"
    value {
      type: DT_FLOAT
    }
  }
  attr {
    key: "data_format"
    value {
      s: "NCHW"
    }
  }
  attr {
    key: "ksize"
    value {
      list {
        i: 1
        i: 1
        i: 2
        i: 2
      }
    }
  }
  attr {
    key: "padding"
    value {
      s: "SAME"
    }
  }
  attr {
    key: "strides"
    value {
      list {
        i: 1
        i: 1
        i: 2
        i: 2
      }
    }
  }
}
node {
  name: "test_model/model/encoder/downsample2/downsample/concat/concat/axis"
  op: "Const"
  attr {
    key: "dtype"
    value {
      type: DT_INT32
    }
  }
  attr {
    key: "value"
    value {
      tensor {
        dtype: DT_INT32
        tensor_shape {
        }
        int_val: 1
      }
    }
  }
}
node {
  name: "test_model/model/encoder/downsample2/downsample/concat/concat"
  op: "ConcatV2"
  input: "test_model/model/encoder/downsample2/downsample/conv/relu/LeakyRelu/Maximum"
  input: "test_model/model/encoder/downsample2/downsample/pool/MaxPool"
  input: "test_model/model/encoder/downsample2/downsample/concat/concat/axis"
  attr {
    key: "N"
    value {
      i: 2
    }
  }
  attr {
    key: "T"
    value {
      type: DT_FLOAT
    }
  }
  attr {
    key: "Tidx"
    value {
      type: DT_INT32
    }
  }
}
node {
  name: "model/encoder/downsample2/non-bt-1/non_bt/asym1/horiz/weights/w/Initializer/truncated_normal/shape"
  op: "Const"
  attr {
    key: "_class"
    value {
      list {
        s: "loc:@model/encoder/downsample2/non-bt-1/non_bt/asym1/horiz/weights/w"
      }
    }
  }
  attr {
    key: "dtype"
    value {
      type: DT_INT32
    }
  }
  attr {
    key: "value"
    value {
      tensor {
        dtype: DT_INT32
        tensor_shape {
          dim {
            size: 4
          }
        }
        tensor_content: "\005\000\000\000\001\000\000\0000\000\000\0000\000\000\000"
      }
    }
  }
}
node {
  name: "model/encoder/downsample2/non-bt-1/non_bt/asym1/horiz/weights/w/Initializer/truncated_normal/mean"
  op: "Const"
  attr {
    key: "_class"
    value {
      list {
        s: "loc:@model/encoder/downsample2/non-bt-1/non_bt/asym1/horiz/weights/w"
      }
    }
  }
  attr {
    key: "dtype"
    value {
      type: DT_FLOAT
    }
  }
  attr {
    key: "value"
    value {
      tensor {
        dtype: DT_FLOAT
        tensor_shape {
        }
        float_val: 0.0
      }
    }
  }
}
node {
  name: "model/encoder/downsample2/non-bt-1/non_bt/asym1/horiz/weights/w/Initializer/truncated_normal/stddev"
  op: "Const"
  attr {
    key: "_class"
    value {
      list {
        s: "loc:@model/encoder/downsample2/non-bt-1/non_bt/asym1/horiz/weights/w"
      }
    }
  }
  attr {
    key: "dtype"
    value {
      type: DT_FLOAT
    }
  }
  attr {
    key: "value"
    value {
      tensor {
        dtype: DT_FLOAT
        tensor_shape {
        }
        float_val: 0.06454972177743912
      }
    }
  }
}
node {
  name: "model/encoder/downsample2/non-bt-1/non_bt/asym1/horiz/weights/w/Initializer/truncated_normal/TruncatedNormal"
  op: "TruncatedNormal"
  input: "model/encoder/downsample2/non-bt-1/non_bt/asym1/horiz/weights/w/Initializer/truncated_normal/shape"
  attr {
    key: "T"
    value {
      type: DT_INT32
    }
  }
  attr {
    key: "_class"
    value {
      list {
        s: "loc:@model/encoder/downsample2/non-bt-1/non_bt/asym1/horiz/weights/w"
      }
    }
  }
  attr {
    key: "dtype"
    value {
      type: DT_FLOAT
    }
  }
  attr {
    key: "seed"
    value {
      i: 0
    }
  }
  attr {
    key: "seed2"
    value {
      i: 0
    }
  }
}
node {
  name: "model/encoder/downsample2/non-bt-1/non_bt/asym1/horiz/weights/w/Initializer/truncated_normal/mul"
  op: "Mul"
  input: "model/encoder/downsample2/non-bt-1/non_bt/asym1/horiz/weights/w/Initializer/truncated_normal/TruncatedNormal"
  input: "model/encoder/downsample2/non-bt-1/non_bt/asym1/horiz/weights/w/Initializer/truncated_normal/stddev"
  attr {
    key: "T"
    value {
      type: DT_FLOAT
    }
  }
  attr {
    key: "_class"
    value {
      list {
        s: "loc:@model/encoder/downsample2/non-bt-1/non_bt/asym1/horiz/weights/w"
      }
    }
  }
}
node {
  name: "model/encoder/downsample2/non-bt-1/non_bt/asym1/horiz/weights/w/Initializer/truncated_normal"
  op: "Add"
  input: "model/encoder/downsample2/non-bt-1/non_bt/asym1/horiz/weights/w/Initializer/truncated_normal/mul"
  input: "model/encoder/downsample2/non-bt-1/non_bt/asym1/horiz/weights/w/Initializer/truncated_normal/mean"
  attr {
    key: "T"
    value {
      type: DT_FLOAT
    }
  }
  attr {
    key: "_class"
    value {
      list {
        s: "loc:@model/encoder/downsample2/non-bt-1/non_bt/asym1/horiz/weights/w"
      }
    }
  }
}
node {
  name: "model/encoder/downsample2/non-bt-1/non_bt/asym1/horiz/weights/w"
  op: "VariableV2"
  attr {
    key: "_class"
    value {
      list {
        s: "loc:@model/encoder/downsample2/non-bt-1/non_bt/asym1/horiz/weights/w"
      }
    }
  }
  attr {
    key: "container"
    value {
      s: ""
    }
  }
  attr {
    key: "dtype"
    value {
      type: DT_FLOAT
    }
  }
  attr {
    key: "shape"
    value {
      shape {
        dim {
          size: 5
        }
        dim {
          size: 1
        }
        dim {
          size: 48
        }
        dim {
          size: 48
        }
      }
    }
  }
  attr {
    key: "shared_name"
    value {
      s: ""
    }
  }
}
node {
  name: "model/encoder/downsample2/non-bt-1/non_bt/asym1/horiz/weights/w/Assign"
  op: "Assign"
  input: "model/encoder/downsample2/non-bt-1/non_bt/asym1/horiz/weights/w"
  input: "model/encoder/downsample2/non-bt-1/non_bt/asym1/horiz/weights/w/Initializer/truncated_normal"
  attr {
    key: "T"
    value {
      type: DT_FLOAT
    }
  }
  attr {
    key: "_class"
    value {
      list {
        s: "loc:@model/encoder/downsample2/non-bt-1/non_bt/asym1/horiz/weights/w"
      }
    }
  }
  attr {
    key: "use_locking"
    value {
      b: true
    }
  }
  attr {
    key: "validate_shape"
    value {
      b: true
    }
  }
}
node {
  name: "model/encoder/downsample2/non-bt-1/non_bt/asym1/horiz/weights/w/read"
  op: "Identity"
  input: "model/encoder/downsample2/non-bt-1/non_bt/asym1/horiz/weights/w"
  attr {
    key: "T"
    value {
      type: DT_FLOAT
    }
  }
  attr {
    key: "_class"
    value {
      list {
        s: "loc:@model/encoder/downsample2/non-bt-1/non_bt/asym1/horiz/weights/w"
      }
    }
  }
}
node {
  name: "test_model/model/encoder/downsample2/non-bt-1/non_bt/asym1/horiz/convolution/Conv2D"
  op: "Conv2D"
  input: "test_model/model/encoder/downsample2/downsample/concat/concat"
  input: "model/encoder/downsample2/non-bt-1/non_bt/asym1/horiz/weights/w/read"
  attr {
    key: "T"
    value {
      type: DT_FLOAT
    }
  }
  attr {
    key: "data_format"
    value {
      s: "NCHW"
    }
  }
  attr {
    key: "dilations"
    value {
      list {
        i: 1
        i: 1
        i: 1
        i: 1
      }
    }
  }
  attr {
    key: "padding"
    value {
      s: "SAME"
    }
  }
  attr {
    key: "strides"
    value {
      list {
        i: 1
        i: 1
        i: 1
        i: 1
      }
    }
  }
  attr {
    key: "use_cudnn_on_gpu"
    value {
      b: true
    }
  }
}
node {
  name: "model/encoder/downsample2/non-bt-1/non_bt/asym1/vert/weights/w/Initializer/truncated_normal/shape"
  op: "Const"
  attr {
    key: "_class"
    value {
      list {
        s: "loc:@model/encoder/downsample2/non-bt-1/non_bt/asym1/vert/weights/w"
      }
    }
  }
  attr {
    key: "dtype"
    value {
      type: DT_INT32
    }
  }
  attr {
    key: "value"
    value {
      tensor {
        dtype: DT_INT32
        tensor_shape {
          dim {
            size: 4
          }
        }
        tensor_content: "\001\000\000\000\005\000\000\0000\000\000\0000\000\000\000"
      }
    }
  }
}
node {
  name: "model/encoder/downsample2/non-bt-1/non_bt/asym1/vert/weights/w/Initializer/truncated_normal/mean"
  op: "Const"
  attr {
    key: "_class"
    value {
      list {
        s: "loc:@model/encoder/downsample2/non-bt-1/non_bt/asym1/vert/weights/w"
      }
    }
  }
  attr {
    key: "dtype"
    value {
      type: DT_FLOAT
    }
  }
  attr {
    key: "value"
    value {
      tensor {
        dtype: DT_FLOAT
        tensor_shape {
        }
        float_val: 0.0
      }
    }
  }
}
node {
  name: "model/encoder/downsample2/non-bt-1/non_bt/asym1/vert/weights/w/Initializer/truncated_normal/stddev"
  op: "Const"
  attr {
    key: "_class"
    value {
      list {
        s: "loc:@model/encoder/downsample2/non-bt-1/non_bt/asym1/vert/weights/w"
      }
    }
  }
  attr {
    key: "dtype"
    value {
      type: DT_FLOAT
    }
  }
  attr {
    key: "value"
    value {
      tensor {
        dtype: DT_FLOAT
        tensor_shape {
        }
        float_val: 0.06454972177743912
      }
    }
  }
}
node {
  name: "model/encoder/downsample2/non-bt-1/non_bt/asym1/vert/weights/w/Initializer/truncated_normal/TruncatedNormal"
  op: "TruncatedNormal"
  input: "model/encoder/downsample2/non-bt-1/non_bt/asym1/vert/weights/w/Initializer/truncated_normal/shape"
  attr {
    key: "T"
    value {
      type: DT_INT32
    }
  }
  attr {
    key: "_class"
    value {
      list {
        s: "loc:@model/encoder/downsample2/non-bt-1/non_bt/asym1/vert/weights/w"
      }
    }
  }
  attr {
    key: "dtype"
    value {
      type: DT_FLOAT
    }
  }
  attr {
    key: "seed"
    value {
      i: 0
    }
  }
  attr {
    key: "seed2"
    value {
      i: 0
    }
  }
}
node {
  name: "model/encoder/downsample2/non-bt-1/non_bt/asym1/vert/weights/w/Initializer/truncated_normal/mul"
  op: "Mul"
  input: "model/encoder/downsample2/non-bt-1/non_bt/asym1/vert/weights/w/Initializer/truncated_normal/TruncatedNormal"
  input: "model/encoder/downsample2/non-bt-1/non_bt/asym1/vert/weights/w/Initializer/truncated_normal/stddev"
  attr {
    key: "T"
    value {
      type: DT_FLOAT
    }
  }
  attr {
    key: "_class"
    value {
      list {
        s: "loc:@model/encoder/downsample2/non-bt-1/non_bt/asym1/vert/weights/w"
      }
    }
  }
}
node {
  name: "model/encoder/downsample2/non-bt-1/non_bt/asym1/vert/weights/w/Initializer/truncated_normal"
  op: "Add"
  input: "model/encoder/downsample2/non-bt-1/non_bt/asym1/vert/weights/w/Initializer/truncated_normal/mul"
  input: "model/encoder/downsample2/non-bt-1/non_bt/asym1/vert/weights/w/Initializer/truncated_normal/mean"
  attr {
    key: "T"
    value {
      type: DT_FLOAT
    }
  }
  attr {
    key: "_class"
    value {
      list {
        s: "loc:@model/encoder/downsample2/non-bt-1/non_bt/asym1/vert/weights/w"
      }
    }
  }
}
node {
  name: "model/encoder/downsample2/non-bt-1/non_bt/asym1/vert/weights/w"
  op: "VariableV2"
  attr {
    key: "_class"
    value {
      list {
        s: "loc:@model/encoder/downsample2/non-bt-1/non_bt/asym1/vert/weights/w"
      }
    }
  }
  attr {
    key: "container"
    value {
      s: ""
    }
  }
  attr {
    key: "dtype"
    value {
      type: DT_FLOAT
    }
  }
  attr {
    key: "shape"
    value {
      shape {
        dim {
          size: 1
        }
        dim {
          size: 5
        }
        dim {
          size: 48
        }
        dim {
          size: 48
        }
      }
    }
  }
  attr {
    key: "shared_name"
    value {
      s: ""
    }
  }
}
node {
  name: "model/encoder/downsample2/non-bt-1/non_bt/asym1/vert/weights/w/Assign"
  op: "Assign"
  input: "model/encoder/downsample2/non-bt-1/non_bt/asym1/vert/weights/w"
  input: "model/encoder/downsample2/non-bt-1/non_bt/asym1/vert/weights/w/Initializer/truncated_normal"
  attr {
    key: "T"
    value {
      type: DT_FLOAT
    }
  }
  attr {
    key: "_class"
    value {
      list {
        s: "loc:@model/encoder/downsample2/non-bt-1/non_bt/asym1/vert/weights/w"
      }
    }
  }
  attr {
    key: "use_locking"
    value {
      b: true
    }
  }
  attr {
    key: "validate_shape"
    value {
      b: true
    }
  }
}
node {
  name: "model/encoder/downsample2/non-bt-1/non_bt/asym1/vert/weights/w/read"
  op: "Identity"
  input: "model/encoder/downsample2/non-bt-1/non_bt/asym1/vert/weights/w"
  attr {
    key: "T"
    value {
      type: DT_FLOAT
    }
  }
  attr {
    key: "_class"
    value {
      list {
        s: "loc:@model/encoder/downsample2/non-bt-1/non_bt/asym1/vert/weights/w"
      }
    }
  }
}
node {
  name: "test_model/model/encoder/downsample2/non-bt-1/non_bt/asym1/vert/convolution/Conv2D"
  op: "Conv2D"
  input: "test_model/model/encoder/downsample2/non-bt-1/non_bt/asym1/horiz/convolution/Conv2D"
  input: "model/encoder/downsample2/non-bt-1/non_bt/asym1/vert/weights/w/read"
  attr {
    key: "T"
    value {
      type: DT_FLOAT
    }
  }
  attr {
    key: "data_format"
    value {
      s: "NCHW"
    }
  }
  attr {
    key: "dilations"
    value {
      list {
        i: 1
        i: 1
        i: 1
        i: 1
      }
    }
  }
  attr {
    key: "padding"
    value {
      s: "SAME"
    }
  }
  attr {
    key: "strides"
    value {
      list {
        i: 1
        i: 1
        i: 1
        i: 1
      }
    }
  }
  attr {
    key: "use_cudnn_on_gpu"
    value {
      b: true
    }
  }
}
node {
  name: "test_model/model/encoder/downsample2/non-bt-1/non_bt/asym1/vert/relu/LeakyRelu/alpha"
  op: "Const"
  attr {
    key: "dtype"
    value {
      type: DT_FLOAT
    }
  }
  attr {
    key: "value"
    value {
      tensor {
        dtype: DT_FLOAT
        tensor_shape {
        }
        float_val: 0.20000000298023224
      }
    }
  }
}
node {
  name: "test_model/model/encoder/downsample2/non-bt-1/non_bt/asym1/vert/relu/LeakyRelu/mul"
  op: "Mul"
  input: "test_model/model/encoder/downsample2/non-bt-1/non_bt/asym1/vert/relu/LeakyRelu/alpha"
  input: "test_model/model/encoder/downsample2/non-bt-1/non_bt/asym1/vert/convolution/Conv2D"
  attr {
    key: "T"
    value {
      type: DT_FLOAT
    }
  }
}
node {
  name: "test_model/model/encoder/downsample2/non-bt-1/non_bt/asym1/vert/relu/LeakyRelu/Maximum"
  op: "Maximum"
  input: "test_model/model/encoder/downsample2/non-bt-1/non_bt/asym1/vert/relu/LeakyRelu/mul"
  input: "test_model/model/encoder/downsample2/non-bt-1/non_bt/asym1/vert/convolution/Conv2D"
  attr {
    key: "T"
    value {
      type: DT_FLOAT
    }
  }
}
node {
  name: "model/encoder/downsample2/non-bt-1/non_bt/asym2/horiz/weights/w/Initializer/truncated_normal/shape"
  op: "Const"
  attr {
    key: "_class"
    value {
      list {
        s: "loc:@model/encoder/downsample2/non-bt-1/non_bt/asym2/horiz/weights/w"
      }
    }
  }
  attr {
    key: "dtype"
    value {
      type: DT_INT32
    }
  }
  attr {
    key: "value"
    value {
      tensor {
        dtype: DT_INT32
        tensor_shape {
          dim {
            size: 4
          }
        }
        tensor_content: "\005\000\000\000\001\000\000\0000\000\000\0000\000\000\000"
      }
    }
  }
}
node {
  name: "model/encoder/downsample2/non-bt-1/non_bt/asym2/horiz/weights/w/Initializer/truncated_normal/mean"
  op: "Const"
  attr {
    key: "_class"
    value {
      list {
        s: "loc:@model/encoder/downsample2/non-bt-1/non_bt/asym2/horiz/weights/w"
      }
    }
  }
  attr {
    key: "dtype"
    value {
      type: DT_FLOAT
    }
  }
  attr {
    key: "value"
    value {
      tensor {
        dtype: DT_FLOAT
        tensor_shape {
        }
        float_val: 0.0
      }
    }
  }
}
node {
  name: "model/encoder/downsample2/non-bt-1/non_bt/asym2/horiz/weights/w/Initializer/truncated_normal/stddev"
  op: "Const"
  attr {
    key: "_class"
    value {
      list {
        s: "loc:@model/encoder/downsample2/non-bt-1/non_bt/asym2/horiz/weights/w"
      }
    }
  }
  attr {
    key: "dtype"
    value {
      type: DT_FLOAT
    }
  }
  attr {
    key: "value"
    value {
      tensor {
        dtype: DT_FLOAT
        tensor_shape {
        }
        float_val: 0.06454972177743912
      }
    }
  }
}
node {
  name: "model/encoder/downsample2/non-bt-1/non_bt/asym2/horiz/weights/w/Initializer/truncated_normal/TruncatedNormal"
  op: "TruncatedNormal"
  input: "model/encoder/downsample2/non-bt-1/non_bt/asym2/horiz/weights/w/Initializer/truncated_normal/shape"
  attr {
    key: "T"
    value {
      type: DT_INT32
    }
  }
  attr {
    key: "_class"
    value {
      list {
        s: "loc:@model/encoder/downsample2/non-bt-1/non_bt/asym2/horiz/weights/w"
      }
    }
  }
  attr {
    key: "dtype"
    value {
      type: DT_FLOAT
    }
  }
  attr {
    key: "seed"
    value {
      i: 0
    }
  }
  attr {
    key: "seed2"
    value {
      i: 0
    }
  }
}
node {
  name: "model/encoder/downsample2/non-bt-1/non_bt/asym2/horiz/weights/w/Initializer/truncated_normal/mul"
  op: "Mul"
  input: "model/encoder/downsample2/non-bt-1/non_bt/asym2/horiz/weights/w/Initializer/truncated_normal/TruncatedNormal"
  input: "model/encoder/downsample2/non-bt-1/non_bt/asym2/horiz/weights/w/Initializer/truncated_normal/stddev"
  attr {
    key: "T"
    value {
      type: DT_FLOAT
    }
  }
  attr {
    key: "_class"
    value {
      list {
        s: "loc:@model/encoder/downsample2/non-bt-1/non_bt/asym2/horiz/weights/w"
      }
    }
  }
}
node {
  name: "model/encoder/downsample2/non-bt-1/non_bt/asym2/horiz/weights/w/Initializer/truncated_normal"
  op: "Add"
  input: "model/encoder/downsample2/non-bt-1/non_bt/asym2/horiz/weights/w/Initializer/truncated_normal/mul"
  input: "model/encoder/downsample2/non-bt-1/non_bt/asym2/horiz/weights/w/Initializer/truncated_normal/mean"
  attr {
    key: "T"
    value {
      type: DT_FLOAT
    }
  }
  attr {
    key: "_class"
    value {
      list {
        s: "loc:@model/encoder/downsample2/non-bt-1/non_bt/asym2/horiz/weights/w"
      }
    }
  }
}
node {
  name: "model/encoder/downsample2/non-bt-1/non_bt/asym2/horiz/weights/w"
  op: "VariableV2"
  attr {
    key: "_class"
    value {
      list {
        s: "loc:@model/encoder/downsample2/non-bt-1/non_bt/asym2/horiz/weights/w"
      }
    }
  }
  attr {
    key: "container"
    value {
      s: ""
    }
  }
  attr {
    key: "dtype"
    value {
      type: DT_FLOAT
    }
  }
  attr {
    key: "shape"
    value {
      shape {
        dim {
          size: 5
        }
        dim {
          size: 1
        }
        dim {
          size: 48
        }
        dim {
          size: 48
        }
      }
    }
  }
  attr {
    key: "shared_name"
    value {
      s: ""
    }
  }
}
node {
  name: "model/encoder/downsample2/non-bt-1/non_bt/asym2/horiz/weights/w/Assign"
  op: "Assign"
  input: "model/encoder/downsample2/non-bt-1/non_bt/asym2/horiz/weights/w"
  input: "model/encoder/downsample2/non-bt-1/non_bt/asym2/horiz/weights/w/Initializer/truncated_normal"
  attr {
    key: "T"
    value {
      type: DT_FLOAT
    }
  }
  attr {
    key: "_class"
    value {
      list {
        s: "loc:@model/encoder/downsample2/non-bt-1/non_bt/asym2/horiz/weights/w"
      }
    }
  }
  attr {
    key: "use_locking"
    value {
      b: true
    }
  }
  attr {
    key: "validate_shape"
    value {
      b: true
    }
  }
}
node {
  name: "model/encoder/downsample2/non-bt-1/non_bt/asym2/horiz/weights/w/read"
  op: "Identity"
  input: "model/encoder/downsample2/non-bt-1/non_bt/asym2/horiz/weights/w"
  attr {
    key: "T"
    value {
      type: DT_FLOAT
    }
  }
  attr {
    key: "_class"
    value {
      list {
        s: "loc:@model/encoder/downsample2/non-bt-1/non_bt/asym2/horiz/weights/w"
      }
    }
  }
}
node {
  name: "test_model/model/encoder/downsample2/non-bt-1/non_bt/asym2/horiz/convolution/Conv2D"
  op: "Conv2D"
  input: "test_model/model/encoder/downsample2/non-bt-1/non_bt/asym1/vert/relu/LeakyRelu/Maximum"
  input: "model/encoder/downsample2/non-bt-1/non_bt/asym2/horiz/weights/w/read"
  attr {
    key: "T"
    value {
      type: DT_FLOAT
    }
  }
  attr {
    key: "data_format"
    value {
      s: "NCHW"
    }
  }
  attr {
    key: "dilations"
    value {
      list {
        i: 1
        i: 1
        i: 1
        i: 1
      }
    }
  }
  attr {
    key: "padding"
    value {
      s: "SAME"
    }
  }
  attr {
    key: "strides"
    value {
      list {
        i: 1
        i: 1
        i: 1
        i: 1
      }
    }
  }
  attr {
    key: "use_cudnn_on_gpu"
    value {
      b: true
    }
  }
}
node {
  name: "model/encoder/downsample2/non-bt-1/non_bt/asym2/vert/weights/w/Initializer/truncated_normal/shape"
  op: "Const"
  attr {
    key: "_class"
    value {
…
        s: "loc:@model/encoder/downsample2/non-bt-3/non_bt/asym2/horiz/weights/w"
      }
    }
  }
  attr {
    key: "use_locking"
    value {
      b: true
    }
  }
  attr {
    key: "validate_shape"
    value {
      b: true
    }
  }
}
node {
  name: "save_1/Assign_131"
  op: "Assign"
  input: "model/encoder/downsample2/non-bt-3/non_bt/asym2/vert/weights/w"
  input: "save_1/RestoreV2:131"
  attr {
    key: "T"
    value {
      type: DT_FLOAT
    }
  }
  attr {
    key: "_class"
    value {
      list {
        s: "loc:@model/encoder/downsample2/non-bt-3/non_bt/asym2/vert/weights/w"
      }
    }
  }
  attr {
    key: "use_locking"
    value {
      b: true
    }
  }
  attr {
    key: "validate_shape"
    value {
      b: true
    }
  }
}
node {
  name: "save_1/Assign_132"
  op: "Assign"
  input: "model/encoder/downsample2/non-bt-3/non_bt/batchnorm/BatchNorm/beta"
  input: "save_1/RestoreV2:132"
  attr {
    key: "T"
    value {
      type: DT_FLOAT
    }
  }
  attr {
    key: "_class"
    value {
      list {
        s: "loc:@model/encoder/downsample2/non-bt-3/non_bt/batchnorm/BatchNorm/beta"
      }
    }
  }
  attr {
    key: "use_locking"
    value {
      b: true
    }
  }
  attr {
    key: "validate_shape"
    value {
      b: true
    }
  }
}
node {
  name: "save_1/Assign_133"
  op: "Assign"
  input: "model/encoder/downsample2/non-bt-3/non_bt/batchnorm/BatchNorm/gamma"
  input: "save_1/RestoreV2:133"
  attr {
    key: "T"
    value {
      type: DT_FLOAT
    }
  }
  attr {
    key: "_class"
    value {
      list {
        s: "loc:@model/encoder/downsample2/non-bt-3/non_bt/batchnorm/BatchNorm/gamma"
      }
    }
  }
  attr {
    key: "use_locking"
    value {
      b: true
    }
  }
  attr {
    key: "validate_shape"
    value {
      b: true
    }
  }
}
node {
  name: "save_1/Assign_134"
  op: "Assign"
  input: "model/encoder/downsample2/non-bt-3/non_bt/batchnorm/BatchNorm/moving_mean"
  input: "save_1/RestoreV2:134"
  attr {
    key: "T"
    value {
      type: DT_FLOAT
    }
  }
  attr {
    key: "_class"
    value {
      list {
        s: "loc:@model/encoder/downsample2/non-bt-3/non_bt/batchnorm/BatchNorm/moving_mean"
      }
    }
  }
  attr {
    key: "use_locking"
    value {
      b: true
    }
  }
  attr {
    key: "validate_shape"
    value {
      b: true
    }
  }
}
node {
  name: "save_1/Assign_135"
  op: "Assign"
  input: "model/encoder/downsample2/non-bt-3/non_bt/batchnorm/BatchNorm/moving_variance"
  input: "save_1/RestoreV2:135"
  attr {
    key: "T"
    value {
      type: DT_FLOAT
    }
  }
  attr {
    key: "_class"
    value {
      list {
        s: "loc:@model/encoder/downsample2/non-bt-3/non_bt/batchnorm/BatchNorm/moving_variance"
      }
    }
  }
  attr {
    key: "use_locking"
    value {
      b: true
    }
  }
  attr {
    key: "validate_shape"
    value {
      b: true
    }
  }
}
node {
  name: "save_1/Assign_136"
  op: "Assign"
  input: "model/encoder/downsample2/non-bt-4/non_bt/asym1/horiz/weights/w"
  input: "save_1/RestoreV2:136"
  attr {
    key: "T"
    value {
      type: DT_FLOAT
    }
  }
  attr {
    key: "_class"
    value {
      list {
        s: "loc:@model/encoder/downsample2/non-bt-4/non_bt/asym1/horiz/weights/w"
      }
    }
  }
  attr {
    key: "use_locking"
    value {
      b: true
    }
  }
  attr {
    key: "validate_shape"
    value {
      b: true
    }
  }
}
node {
  name: "save_1/Assign_137"
  op: "Assign"
  input: "model/encoder/downsample2/non-bt-4/non_bt/asym1/vert/weights/w"
  input: "save_1/RestoreV2:137"
  attr {
    key: "T"
    value {
      type: DT_FLOAT
    }
  }
  attr {
    key: "_class"
    value {
      list {
        s: "loc:@model/encoder/downsample2/non-bt-4/non_bt/asym1/vert/weights/w"
      }
    }
  }
  attr {
    key: "use_locking"
    value {
      b: true
    }
  }
  attr {
    key: "validate_shape"
    value {
      b: true
    }
  }
}
node {
  name: "save_1/Assign_138"
  op: "Assign"
  input: "model/encoder/downsample2/non-bt-4/non_bt/asym2/horiz/weights/w"
  input: "save_1/RestoreV2:138"
  attr {
    key: "T"
    value {
      type: DT_FLOAT
    }
  }
  attr {
    key: "_class"
    value {
      list {
        s: "loc:@model/encoder/downsample2/non-bt-4/non_bt/asym2/horiz/weights/w"
      }
    }
  }
  attr {
    key: "use_locking"
    value {
      b: true
    }
  }
  attr {
    key: "validate_shape"
    value {
      b: true
    }
  }
}
node {
  name: "save_1/Assign_139"
  op: "Assign"
  input: "model/encoder/downsample2/non-bt-4/non_bt/asym2/vert/weights/w"
  input: "save_1/RestoreV2:139"
  attr {
    key: "T"
    value {
      type: DT_FLOAT
    }
  }
  attr {
    key: "_class"
    value {
      list {
        s: "loc:@model/encoder/downsample2/non-bt-4/non_bt/asym2/vert/weights/w"
      }
    }
  }
  attr {
    key: "use_locking"
    value {
      b: true
    }
  }
  attr {
    key: "validate_shape"
    value {
      b: true
    }
  }
}
node {
  name: "save_1/Assign_140"
  op: "Assign"
  input: "model/encoder/downsample2/non-bt-4/non_bt/batchnorm/BatchNorm/beta"
  input: "save_1/RestoreV2:140"
  attr {
    key: "T"
    value {
      type: DT_FLOAT
    }
  }
  attr {
    key: "_class"
    value {
      list {
        s: "loc:@model/encoder/downsample2/non-bt-4/non_bt/batchnorm/BatchNorm/beta"
      }
    }
  }
  attr {
    key: "use_locking"
    value {
      b: true
    }
  }
  attr {
    key: "validate_shape"
    value {
      b: true
    }
  }
}
node {
  name: "save_1/Assign_141"
  op: "Assign"
  input: "model/encoder/downsample2/non-bt-4/non_bt/batchnorm/BatchNorm/gamma"
  input: "save_1/RestoreV2:141"
  attr {
    key: "T"
    value {
      type: DT_FLOAT
    }
  }
  attr {
    key: "_class"
    value {
      list {
        s: "loc:@model/encoder/downsample2/non-bt-4/non_bt/batchnorm/BatchNorm/gamma"
      }
    }
  }
  attr {
    key: "use_locking"
    value {
      b: true
    }
  }
  attr {
    key: "validate_shape"
    value {
      b: true
    }
  }
}
node {
  name: "save_1/Assign_142"
  op: "Assign"
  input: "model/encoder/downsample2/non-bt-4/non_bt/batchnorm/BatchNorm/moving_mean"
  input: "save_1/RestoreV2:142"
  attr {
    key: "T"
    value {
      type: DT_FLOAT
    }
  }
  attr {
    key: "_class"
    value {
      list {
        s: "loc:@model/encoder/downsample2/non-bt-4/non_bt/batchnorm/BatchNorm/moving_mean"
      }
    }
  }
  attr {
    key: "use_locking"
    value {
      b: true
    }
  }
  attr {
    key: "validate_shape"
    value {
      b: true
    }
  }
}
node {
  name: "save_1/Assign_143"
  op: "Assign"
  input: "model/encoder/downsample2/non-bt-4/non_bt/batchnorm/BatchNorm/moving_variance"
  input: "save_1/RestoreV2:143"
  attr {
    key: "T"
    value {
      type: DT_FLOAT
    }
  }
  attr {
    key: "_class"
    value {
      list {
        s: "loc:@model/encoder/downsample2/non-bt-4/non_bt/batchnorm/BatchNorm/moving_variance"
      }
    }
  }
  attr {
    key: "use_locking"
    value {
      b: true
    }
  }
  attr {
    key: "validate_shape"
    value {
      b: true
    }
  }
}
node {
  name: "save_1/Assign_144"
  op: "Assign"
  input: "model/encoder/downsample3/downsample/conv/batchnorm/BatchNorm/beta"
  input: "save_1/RestoreV2:144"
  attr {
    key: "T"
    value {
      type: DT_FLOAT
    }
  }
  attr {
    key: "_class"
    value {
      list {
        s: "loc:@model/encoder/downsample3/downsample/conv/batchnorm/BatchNorm/beta"
      }
    }
  }
  attr {
    key: "use_locking"
    value {
      b: true
    }
  }
  attr {
    key: "validate_shape"
    value {
      b: true
    }
  }
}
node {
  name: "save_1/Assign_145"
  op: "Assign"
  input: "model/encoder/downsample3/downsample/conv/batchnorm/BatchNorm/gamma"
  input: "save_1/RestoreV2:145"
  attr {
    key: "T"
    value {
      type: DT_FLOAT
    }
  }
  attr {
    key: "_class"
    value {
      list {
        s: "loc:@model/encoder/downsample3/downsample/conv/batchnorm/BatchNorm/gamma"
      }
    }
  }
  attr {
    key: "use_locking"
    value {
      b: true
    }
  }
  attr {
    key: "validate_shape"
    value {
      b: true
    }
  }
}
node {
  name: "save_1/Assign_146"
  op: "Assign"
  input: "model/encoder/downsample3/downsample/conv/batchnorm/BatchNorm/moving_mean"
  input: "save_1/RestoreV2:146"
  attr {
    key: "T"
    value {
      type: DT_FLOAT
    }
  }
  attr {
    key: "_class"
    value {
      list {
        s: "loc:@model/encoder/downsample3/downsample/conv/batchnorm/BatchNorm/moving_mean"
      }
    }
  }
  attr {
    key: "use_locking"
    value {
      b: true
    }
  }
  attr {
    key: "validate_shape"
    value {
      b: true
    }
  }
}
node {
  name: "save_1/Assign_147"
  op: "Assign"
  input: "model/encoder/downsample3/downsample/conv/batchnorm/BatchNorm/moving_variance"
  input: "save_1/RestoreV2:147"
  attr {
    key: "T"
    value {
      type: DT_FLOAT
    }
  }
  attr {
    key: "_class"
    value {
      list {
        s: "loc:@model/encoder/downsample3/downsample/conv/batchnorm/BatchNorm/moving_variance"
      }
    }
  }
  attr {
    key: "use_locking"
    value {
      b: true
    }
  }
  attr {
    key: "validate_shape"
    value {
      b: true
    }
  }
}
node {
  name: "save_1/Assign_148"
  op: "Assign"
  input: "model/encoder/downsample3/downsample/conv/weights/w"
  input: "save_1/RestoreV2:148"
  attr {
    key: "T"
    value {
      type: DT_FLOAT
    }
  }
  attr {
    key: "_class"
    value {
      list {
        s: "loc:@model/encoder/downsample3/downsample/conv/weights/w"
      }
    }
  }
  attr {
    key: "use_locking"
    value {
      b: true
    }
  }
  attr {
    key: "validate_shape"
    value {
      b: true
    }
  }
}
node {
  name: "save_1/Assign_149"
  op: "Assign"
  input: "model/encoder/downsample3/non-bt-1/non_bt/asym1/horiz/weights/w"
  input: "save_1/RestoreV2:149"
  attr {
    key: "T"
    value {
      type: DT_FLOAT
    }
  }
  attr {
    key: "_class"
    value {
      list {
        s: "loc:@model/encoder/downsample3/non-bt-1/non_bt/asym1/horiz/weights/w"
      }
    }
  }
  attr {
    key: "use_locking"
    value {
      b: true
    }
  }
  attr {
    key: "validate_shape"
    value {
      b: true
    }
  }
}
node {
  name: "save_1/Assign_150"
  op: "Assign"
  input: "model/encoder/downsample3/non-bt-1/non_bt/asym1/vert/weights/w"
  input: "save_1/RestoreV2:150"
  attr {
    key: "T"
    value {
      type: DT_FLOAT
    }
  }
  attr {
    key: "_class"
    value {
      list {
        s: "loc:@model/encoder/downsample3/non-bt-1/non_bt/asym1/vert/weights/w"
      }
    }
  }
  attr {
    key: "use_locking"
    value {
      b: true
    }
  }
  attr {
    key: "validate_shape"
    value {
      b: true
    }
  }
}
node {
  name: "save_1/Assign_151"
  op: "Assign"
  input: "model/encoder/downsample3/non-bt-1/non_bt/asym2/horiz/weights/w"
  input: "save_1/RestoreV2:151"
  attr {
    key: "T"
    value {
      type: DT_FLOAT
    }
  }
  attr {
    key: "_class"
    value {
      list {
        s: "loc:@model/encoder/downsample3/non-bt-1/non_bt/asym2/horiz/weights/w"
      }
    }
  }
  attr {
    key: "use_locking"
    value {
      b: true
    }
  }
  attr {
    key: "validate_shape"
    value {
      b: true
    }
  }
}
node {
  name: "save_1/Assign_152"
  op: "Assign"
  input: "model/encoder/downsample3/non-bt-1/non_bt/asym2/vert/weights/w"
  input: "save_1/RestoreV2:152"
  attr {
    key: "T"
    value {
      type: DT_FLOAT
    }
  }
  attr {
    key: "_class"
    value {
      list {
        s: "loc:@model/encoder/downsample3/non-bt-1/non_bt/asym2/vert/weights/w"
      }
    }
  }
  attr {
    key: "use_locking"
    value {
      b: true
    }
  }
  attr {
    key: "validate_shape"
    value {
      b: true
    }
  }
}
node {
  name: "save_1/Assign_153"
  op: "Assign"
  input: "model/encoder/downsample3/non-bt-1/non_bt/batchnorm/BatchNorm/beta"
  input: "save_1/RestoreV2:153"
  attr {
    key: "T"
    value {
      type: DT_FLOAT
    }
  }
  attr {
    key: "_class"
    value {
      list {
        s: "loc:@model/encoder/downsample3/non-bt-1/non_bt/batchnorm/BatchNorm/beta"
      }
    }
  }
  attr {
    key: "use_locking"
    value {
      b: true
    }
  }
  attr {
    key: "validate_shape"
    value {
      b: true
    }
  }
}
node {
  name: "save_1/Assign_154"
  op: "Assign"
  input: "model/encoder/downsample3/non-bt-1/non_bt/batchnorm/BatchNorm/gamma"
  input: "save_1/RestoreV2:154"
  attr {
    key: "T"
    value {
      type: DT_FLOAT
    }
  }
  attr {
    key: "_class"
    value {
      list {
        s: "loc:@model/encoder/downsample3/non-bt-1/non_bt/batchnorm/BatchNorm/gamma"
      }
    }
  }
  attr {
    key: "use_locking"
    value {
      b: true
    }
  }
  attr {
    key: "validate_shape"
    value {
      b: true
    }
  }
}
node {
  name: "save_1/Assign_155"
  op: "Assign"
  input: "model/encoder/downsample3/non-bt-1/non_bt/batchnorm/BatchNorm/moving_mean"
  input: "save_1/RestoreV2:155"
  attr {
    key: "T"
    value {
      type: DT_FLOAT
    }
  }
  attr {
    key: "_class"
    value {
      list {
        s: "loc:@model/encoder/downsample3/non-bt-1/non_bt/batchnorm/BatchNorm/moving_mean"
      }
    }
  }
  attr {
    key: "use_locking"
    value {
      b: true
    }
  }
  attr {
    key: "validate_shape"
    value {
      b: true
    }
  }
}
node {
  name: "save_1/Assign_156"
  op: "Assign"
  input: "model/encoder/downsample3/non-bt-1/non_bt/batchnorm/BatchNorm/moving_variance"
  input: "save_1/RestoreV2:156"
  attr {
    key: "T"
    value {
      type: DT_FLOAT
    }
  }
  attr {
    key: "_class"
    value {
      list {
        s: "loc:@model/encoder/downsample3/non-bt-1/non_bt/batchnorm/BatchNorm/moving_variance"
      }
    }
  }
  attr {
    key: "use_locking"
    value {
      b: true
    }
  }
  attr {
    key: "validate_shape"
    value {
      b: true
    }
  }
}
node {
  name: "save_1/Assign_157"
  op: "Assign"
  input: "model/encoder/downsample3/non-bt-2/non_bt/asym1/horiz/weights/w"
  input: "save_1/RestoreV2:157"
  attr {
    key: "T"
    value {
      type: DT_FLOAT
    }
  }
  attr {
    key: "_class"
    value {
      list {
        s: "loc:@model/encoder/downsample3/non-bt-2/non_bt/asym1/horiz/weights/w"
      }
    }
  }
  attr {
    key: "use_locking"
    value {
      b: true
    }
  }
  attr {
    key: "validate_shape"
    value {
      b: true
    }
  }
}
node {
  name: "save_1/Assign_158"
  op: "Assign"
  input: "model/encoder/downsample3/non-bt-2/non_bt/asym1/vert/weights/w"
  input: "save_1/RestoreV2:158"
  attr {
    key: "T"
    value {
      type: DT_FLOAT
    }
  }
  attr {
    key: "_class"
    value {
      list {
        s: "loc:@model/encoder/downsample3/non-bt-2/non_bt/asym1/vert/weights/w"
      }
    }
  }
  attr {
    key: "use_locking"
    value {
      b: true
    }
  }
  attr {
    key: "validate_shape"
    value {
      b: true
    }
  }
}
node {
  name: "save_1/Assign_159"
  op: "Assign"
  input: "model/encoder/downsample3/non-bt-2/non_bt/asym2/horiz/weights/w"
  input: "save_1/RestoreV2:159"
  attr {
    key: "T"
    value {
      type: DT_FLOAT
    }
  }
  attr {
    key: "_class"
    value {
      list {
        s: "loc:@model/encoder/downsample3/non-bt-2/non_bt/asym2/horiz/weights/w"
      }
    }
  }
  attr {
    key: "use_locking"
    value {
      b: true
    }
  }
  attr {
    key: "validate_shape"
    value {
      b: true
    }
  }
}
node {
  name: "save_1/Assign_160"
  op: "Assign"
  input: "model/encoder/downsample3/non-bt-2/non_bt/asym2/vert/weights/w"
  input: "save_1/RestoreV2:160"
  attr {
    key: "T"
    value {
      type: DT_FLOAT
    }
  }
  attr {
    key: "_class"
    value {
      list {
        s: "loc:@model/encoder/downsample3/non-bt-2/non_bt/asym2/vert/weights/w"
      }
    }
  }
  attr {
    key: "use_locking"
    value {
      b: true
    }
  }
  attr {
    key: "validate_shape"
    value {
      b: true
    }
  }
}
node {
  name: "save_1/Assign_161"
  op: "Assign"
  input: "model/encoder/downsample3/non-bt-2/non_bt/batchnorm/BatchNorm/beta"
  input: "save_1/RestoreV2:161"
  attr {
    key: "T"
    value {
      type: DT_FLOAT
    }
  }
  attr {
    key: "_class"
    value {
      list {
        s: "loc:@model/encoder/downsample3/non-bt-2/non_bt/batchnorm/BatchNorm/beta"
      }
    }
  }
  attr {
    key: "use_locking"
    value {
      b: true
    }
  }
  attr {
    key: "validate_shape"
    value {
      b: true
    }
  }
}
node {
  name: "save_1/Assign_162"
  op: "Assign"
  input: "model/encoder/downsample3/non-bt-2/non_bt/batchnorm/BatchNorm/gamma"
  input: "save_1/RestoreV2:162"
  attr {
    key: "T"
    value {
      type: DT_FLOAT
    }
  }
  attr {
    key: "_class"
    value {
      list {
        s: "loc:@model/encoder/downsample3/non-bt-2/non_bt/batchnorm/BatchNorm/gamma"
      }
    }
  }
  attr {
    key: "use_locking"
    value {
      b: true
    }
  }
  attr {
    key: "validate_shape"
    value {
      b: true
    }
  }
}
node {
  name: "save_1/Assign_163"
  op: "Assign"
  input: "model/encoder/downsample3/non-bt-2/non_bt/batchnorm/BatchNorm/moving_mean"
  input: "save_1/RestoreV2:163"
  attr {
    key: "T"
    value {
      type: DT_FLOAT
    }
  }
  attr {
    key: "_class"
    value {
      list {
        s: "loc:@model/encoder/downsample3/non-bt-2/non_bt/batchnorm/BatchNorm/moving_mean"
      }
    }
  }
  attr {
    key: "use_locking"
    value {
      b: true
    }
  }
  attr {
    key: "validate_shape"
    value {
      b: true
    }
  }
}
node {
  name: "save_1/Assign_164"
  op: "Assign"
  input: "model/encoder/downsample3/non-bt-2/non_bt/batchnorm/BatchNorm/moving_variance"
  input: "save_1/RestoreV2:164"
  attr {
    key: "T"
    value {
      type: DT_FLOAT
    }
  }
  attr {
    key: "_class"
    value {
      list {
        s: "loc:@model/encoder/downsample3/non-bt-2/non_bt/batchnorm/BatchNorm/moving_variance"
      }
    }
  }
  attr {
    key: "use_locking"
    value {
      b: true
    }
  }
  attr {
    key: "validate_shape"
    value {
      b: true
    }
  }
}
node {
  name: "save_1/Assign_165"
  op: "Assign"
  input: "model/encoder/downsample3/non-bt-3/non_bt/asym1/horiz/weights/w"
  input: "save_1/RestoreV2:165"
  attr {
    key: "T"
    value {
      type: DT_FLOAT
    }
  }
  attr {
    key: "_class"
    value {
      list {
        s: "loc:@model/encoder/downsample3/non-bt-3/non_bt/asym1/horiz/weights/w"
      }
    }
  }
  attr {
    key: "use_locking"
    value {
      b: true
    }
  }
  attr {
    key: "validate_shape"
    value {
      b: true
    }
  }
}
node {
  name: "save_1/Assign_166"
  op: "Assign"
  input: "model/encoder/downsample3/non-bt-3/non_bt/asym1/vert/weights/w"
  input: "save_1/RestoreV2:166"
  attr {
    key: "T"
    value {
      type: DT_FLOAT
    }
  }
  attr {
    key: "_class"
    value {
      list {
        s: "loc:@model/encoder/downsample3/non-bt-3/non_bt/asym1/vert/weights/w"
      }
    }
  }
  attr {
    key: "use_locking"
    value {
      b: true
    }
  }
  attr {
    key: "validate_shape"
    value {
      b: true
    }
  }
}
node {
  name: "save_1/Assign_167"
  op: "Assign"
  input: "model/encoder/downsample3/non-bt-3/non_bt/asym2/horiz/weights/w"
  input: "save_1/RestoreV2:167"
  attr {
    key: "T"
    value {
      type: DT_FLOAT
    }
  }
  attr {
    key: "_class"
    value {
      list {
        s: "loc:@model/encoder/downsample3/non-bt-3/non_bt/asym2/horiz/weights/w"
      }
    }
  }
  attr {
    key: "use_locking"
    value {
      b: true
    }
  }
  attr {
    key: "validate_shape"
    value {
      b: true
    }
  }
}
node {
  name: "save_1/Assign_168"
  op: "Assign"
  input: "model/encoder/downsample3/non-bt-3/non_bt/asym2/vert/weights/w"
  input: "save_1/RestoreV2:168"
  attr {
    key: "T"
    value {
      type: DT_FLOAT
    }
  }
  attr {
    key: "_class"
    value {
      list {
        s: "loc:@model/encoder/downsample3/non-bt-3/non_bt/asym2/vert/weights/w"
      }
    }
  }
  attr {
    key: "use_locking"
    value {
      b: true
    }
  }
  attr {
    key: "validate_shape"
    value {
      b: true
    }
  }
}
node {
  name: "save_1/Assign_169"
  op: "Assign"
  input: "model/encoder/downsample3/non-bt-3/non_bt/batchnorm/BatchNorm/beta"
  input: "save_1/RestoreV2:169"
  attr {
    key: "T"
    value {
      type: DT_FLOAT
    }
  }
  attr {
    key: "_class"
    value {
      list {
        s: "loc:@model/encoder/downsample3/non-bt-3/non_bt/batchnorm/BatchNorm/beta"
      }
    }
  }
  attr {
    key: "use_locking"
    value {
      b: true
    }
  }
  attr {
    key: "validate_shape"
    value {
      b: true
    }
  }
}
node {
  name: "save_1/Assign_170"
  op: "Assign"
  input: "model/encoder/downsample3/non-bt-3/non_bt/batchnorm/BatchNorm/gamma"
  input: "save_1/RestoreV2:170"
  attr {
    key: "T"
    value {
      type: DT_FLOAT
    }
  }
  attr {
    key: "_class"
    value {
      list {
        s: "loc:@model/encoder/downsample3/non-bt-3/non_bt/batchnorm/BatchNorm/gamma"
      }
    }
  }
  attr {
    key: "use_locking"
    value {
      b: true
    }
  }
  attr {
    key: "validate_shape"
    value {
      b: true
    }
  }
}
node {
  name: "save_1/Assign_171"
  op: "Assign"
  input: "model/encoder/downsample3/non-bt-3/non_bt/batchnorm/BatchNorm/moving_mean"
  input: "save_1/RestoreV2:171"
  attr {
    key: "T"
    value {
      type: DT_FLOAT
    }
  }
  attr {
    key: "_class"
    value {
      list {
        s: "loc:@model/encoder/downsample3/non-bt-3/non_bt/batchnorm/BatchNorm/moving_mean"
      }
    }
  }
  attr {
    key: "use_locking"
    value {
      b: true
    }
  }
  attr {
    key: "validate_shape"
    value {
      b: true
    }
  }
}
node {
  name: "save_1/Assign_172"
  op: "Assign"
  input: "model/encoder/downsample3/non-bt-3/non_bt/batchnorm/BatchNorm/moving_variance"
  input: "save_1/RestoreV2:172"
  attr {
    key: "T"
    value {
      type: DT_FLOAT
    }
  }
  attr {
    key: "_class"
    value {
      list {
        s: "loc:@model/encoder/downsample3/non-bt-3/non_bt/batchnorm/BatchNorm/moving_variance"
      }
    }
  }
  attr {
    key: "use_locking"
    value {
      b: true
    }
  }
  attr {
    key: "validate_shape"
    value {
      b: true
    }
  }
}
node {
  name: "save_1/Assign_173"
  op: "Assign"
  input: "model/encoder/downsample3/non-bt-4/non_bt/asym1/horiz/weights/w"
  input: "save_1/RestoreV2:173"
  attr {
    key: "T"
    value {
      type: DT_FLOAT
    }
  }
  attr {
    key: "_class"
    value {
      list {
        s: "loc:@model/encoder/downsample3/non-bt-4/non_bt/asym1/horiz/weights/w"
      }
    }
  }
  attr {
    key: "use_locking"
    value {
      b: true
    }
  }
  attr {
    key: "validate_shape"
    value {
      b: true
    }
  }
}
node {
  name: "save_1/Assign_174"
  op: "Assign"
  input: "model/encoder/downsample3/non-bt-4/non_bt/asym1/vert/weights/w"
  input: "save_1/RestoreV2:174"
  attr {
    key: "T"
    value {
      type: DT_FLOAT
    }
  }
  attr {
    key: "_class"
    value {
      list {
        s: "loc:@model/encoder/downsample3/non-bt-4/non_bt/asym1/vert/weights/w"
      }
    }
  }
  attr {
    key: "use_locking"
    value {
      b: true
    }
  }
  attr {
    key: "validate_shape"
    value {
      b: true
    }
  }
}
node {
  name: "save_1/Assign_175"
  op: "Assign"
  input: "model/encoder/downsample3/non-bt-4/non_bt/asym2/horiz/weights/w"
  input: "save_1/RestoreV2:175"
  attr {
    key: "T"
    value {
      type: DT_FLOAT
    }
  }
  attr {
    key: "_class"
    value {
      list {
        s: "loc:@model/encoder/downsample3/non-bt-4/non_bt/asym2/horiz/weights/w"
      }
    }
  }
  attr {
    key: "use_locking"
    value {
      b: true
    }
  }
  attr {
    key: "validate_shape"
    value {
      b: true
    }
  }
}
node {
  name: "save_1/Assign_176"
  op: "Assign"
  input: "model/encoder/downsample3/non-bt-4/non_bt/asym2/vert/weights/w"
  input: "save_1/RestoreV2:176"
  attr {
    key: "T"
    value {
      type: DT_FLOAT
    }
  }
  attr {
    key: "_class"
    value {
      list {
        s: "loc:@model/encoder/downsample3/non-bt-4/non_bt/asym2/vert/weights/w"
      }
    }
  }
  attr {
    key: "use_locking"
    value {
      b: true
    }
  }
  attr {
    key: "validate_shape"
    value {
      b: true
    }
  }
}
node {
  name: "save_1/Assign_177"
  op: "Assign"
  input: "model/encoder/downsample3/non-bt-4/non_bt/batchnorm/BatchNorm/beta"
  input: "save_1/RestoreV2:177"
  attr {
    key: "T"
    value {
      type: DT_FLOAT
    }
  }
  attr {
    key: "_class"
    value {
      list {
        s: "loc:@model/encoder/downsample3/non-bt-4/non_bt/batchnorm/BatchNorm/beta"
      }
    }
  }
  attr {
    key: "use_locking"
    value {
      b: true
    }
  }
  attr {
    key: "validate_shape"
    value {
      b: true
    }
  }
}
node {
  name: "save_1/Assign_178"
  op: "Assign"
  input: "model/encoder/downsample3/non-bt-4/non_bt/batchnorm/BatchNorm/gamma"
  input: "save_1/RestoreV2:178"
  attr {
    key: "T"
    value {
      type: DT_FLOAT
    }
  }
  attr {
    key: "_class"
    value {
      list {
        s: "loc:@model/encoder/downsample3/non-bt-4/non_bt/batchnorm/BatchNorm/gamma"
      }
    }
  }
  attr {
    key: "use_locking"
    value {
      b: true
    }
  }
  attr {
    key: "validate_shape"
    value {
      b: true
    }
  }
}
node {
  name: "save_1/Assign_179"
  op: "Assign"
  input: "model/encoder/downsample3/non-bt-4/non_bt/batchnorm/BatchNorm/moving_mean"
  input: "save_1/RestoreV2:179"
  attr {
    key: "T"
    value {
      type: DT_FLOAT
    }
  }
  attr {
    key: "_class"
    value {
      list {
        s: "loc:@model/encoder/downsample3/non-bt-4/non_bt/batchnorm/BatchNorm/moving_mean"
      }
    }
  }
  attr {
    key: "use_locking"
    value {
      b: true
    }
  }
  attr {
    key: "validate_shape"
    value {
      b: true
    }
  }
}
node {
  name: "save_1/Assign_180"
  op: "Assign"
  input: "model/encoder/downsample3/non-bt-4/non_bt/batchnorm/BatchNorm/moving_variance"
  input: "save_1/RestoreV2:180"
  attr {
    key: "T"
    value {
      type: DT_FLOAT
    }
  }
  attr {
    key: "_class"
    value {
      list {
        s: "loc:@model/encoder/downsample3/non-bt-4/non_bt/batchnorm/BatchNorm/moving_variance"
      }
    }
  }
  attr {
    key: "use_locking"
    value {
      b: true
    }
  }
  attr {
    key: "validate_shape"
    value {
      b: true
    }
  }
}
node {
  name: "save_1/Assign_181"
  op: "Assign"
  input: "model/encoder/godeep/non-bt-1/non_bt/asym1/horiz/weights/w"
  input: "save_1/RestoreV2:181"
  attr {
    key: "T"
    value {
      type: DT_FLOAT
    }
  }
  attr {
    key: "_class"
    value {
      list {
        s: "loc:@model/encoder/godeep/non-bt-1/non_bt/asym1/horiz/weights/w"
      }
    }
  }
  attr {
    key: "use_locking"
    value {
      b: true
    }
  }
  attr {
    key: "validate_shape"
    value {
      b: true
    }
  }
}
node {
  name: "save_1/Assign_182"
  op: "Assign"
  input: "model/encoder/godeep/non-bt-1/non_bt/asym1/vert/weights/w"
  input: "save_1/RestoreV2:182"
  attr {
    key: "T"
    value {
      type: DT_FLOAT
    }
  }
  attr {
    key: "_class"
    value {
      list {
        s: "loc:@model/encoder/godeep/non-bt-1/non_bt/asym1/vert/weights/w"
      }
    }
  }
  attr {
    key: "use_locking"
    value {
      b: true
    }
  }
  attr {
    key: "validate_shape"
    value {
      b: true
    }
  }
}
node {
  name: "save_1/Assign_183"
  op: "Assign"
  input: "model/encoder/godeep/non-bt-1/non_bt/asym2/horiz/weights/w"
  input: "save_1/RestoreV2:183"
  attr {
    key: "T"
    value {
      type: DT_FLOAT
    }
  }
  attr {
    key: "_class"
    value {
      list {
        s: "loc:@model/encoder/godeep/non-bt-1/non_bt/asym2/horiz/weights/w"
      }
    }
  }
  attr {
    key: "use_locking"
    value {
      b: true
    }
  }
  attr {
    key: "validate_shape"
    value {
      b: true
    }
  }
}
node {
  name: "save_1/Assign_184"
  op: "Assign"
  input: "model/encoder/godeep/non-bt-1/non_bt/asym2/vert/weights/w"
  input: "save_1/RestoreV2:184"
  attr {
    key: "T"
    value {
      type: DT_FLOAT
    }
  }
  attr {
    key: "_class"
    value {
      list {
        s: "loc:@model/encoder/godeep/non-bt-1/non_bt/asym2/vert/weights/w"
      }
    }
  }
  attr {
    key: "use_locking"
    value {
      b: true
    }
  }
  attr {
    key: "validate_shape"
    value {
      b: true
    }
  }
}
node {
  name: "save_1/Assign_185"
  op: "Assign"
  input: "model/encoder/godeep/non-bt-1/non_bt/batchnorm/BatchNorm/beta"
  input: "save_1/RestoreV2:185"
  attr {
    key: "T"
    value {
      type: DT_FLOAT
    }
  }
  attr {
    key: "_class"
    value {
      list {
        s: "loc:@model/encoder/godeep/non-bt-1/non_bt/batchnorm/BatchNorm/beta"
      }
    }
  }
  attr {
    key: "use_locking"
    value {
      b: true
    }
  }
  attr {
    key: "validate_shape"
    value {
      b: true
    }
  }
}
node {
  name: "save_1/Assign_186"
  op: "Assign"
  input: "model/encoder/godeep/non-bt-1/non_bt/batchnorm/BatchNorm/gamma"
  input: "save_1/RestoreV2:186"
  attr {
    key: "T"
    value {
      type: DT_FLOAT
    }
  }
  attr {
    key: "_class"
    value {
      list {
        s: "loc:@model/encoder/godeep/non-bt-1/non_bt/batchnorm/BatchNorm/gamma"
      }
    }
  }
  attr {
    key: "use_locking"
    value {
      b: true
    }
  }
  attr {
    key: "validate_shape"
    value {
      b: true
    }
  }
}
node {
  name: "save_1/Assign_187"
  op: "Assign"
  input: "model/encoder/godeep/non-bt-1/non_bt/batchnorm/BatchNorm/moving_mean"
  input: "save_1/RestoreV2:187"
  attr {
    key: "T"
    value {
      type: DT_FLOAT
    }
  }
  attr {
    key: "_class"
    value {
      list {
        s: "loc:@model/encoder/godeep/non-bt-1/non_bt/batchnorm/BatchNorm/moving_mean"
      }
    }
  }
  attr {
    key: "use_locking"
    value {
      b: true
    }
  }
  attr {
    key: "validate_shape"
    value {
      b: true
    }
  }
}
node {
  name: "save_1/Assign_188"
  op: "Assign"
  input: "model/encoder/godeep/non-bt-1/non_bt/batchnorm/BatchNorm/moving_variance"
  input: "save_1/RestoreV2:188"
  attr {
    key: "T"
    value {
      type: DT_FLOAT
    }
  }
  attr {
    key: "_class"
    value {
      list {
        s: "loc:@model/encoder/godeep/non-bt-1/non_bt/batchnorm/BatchNorm/moving_variance"
      }
    }
  }
  attr {
    key: "use_locking"
    value {
      b: true
    }
  }
  attr {
    key: "validate_shape"
    value {
      b: true
    }
  }
}
node {
  name: "save_1/Assign_189"
  op: "Assign"
  input: "model/encoder/godeep/non-bt-2/non_bt/asym1/horiz/weights/w"
  input: "save_1/RestoreV2:189"
  attr {
    key: "T"
    value {
      type: DT_FLOAT
    }
  }
  attr {
    key: "_class"
    value {
      list {
        s: "loc:@model/encoder/godeep/non-bt-2/non_bt/asym1/horiz/weights/w"
      }
    }
  }
  attr {
    key: "use_locking"
    value {
      b: true
    }
  }
  attr {
    key: "validate_shape"
    value {
      b: true
    }
  }
}
node {
  name: "save_1/Assign_190"
  op: "Assign"
  input: "model/encoder/godeep/non-bt-2/non_bt/asym1/vert/weights/w"
  input: "save_1/RestoreV2:190"
  attr {
    key: "T"
    value {
      type: DT_FLOAT
    }
  }
  attr {
    key: "_class"
    value {
      list {
        s: "loc:@model/encoder/godeep/non-bt-2/non_bt/asym1/vert/weights/w"
      }
    }
  }
  attr {
    key: "use_locking"
    value {
      b: true
    }
  }
  attr {
    key: "validate_shape"
    value {
      b: true
    }
  }
}
node {
  name: "save_1/Assign_191"
  op: "Assign"
  input: "model/encoder/godeep/non-bt-2/non_bt/asym2/horiz/weights/w"
  input: "save_1/RestoreV2:191"
  attr {
    key: "T"
    value {
      type: DT_FLOAT
    }
  }
  attr {
    key: "_class"
    value {
      list {
        s: "loc:@model/encoder/godeep/non-bt-2/non_bt/asym2/horiz/weights/w"
      }
    }
  }
  attr {
    key: "use_locking"
    value {
      b: true
    }
  }
  attr {
    key: "validate_shape"
    value {
      b: true
    }
  }
}
node {
  name: "save_1/Assign_192"
  op: "Assign"
  input: "model/encoder/godeep/non-bt-2/non_bt/asym2/vert/weights/w"
  input: "save_1/RestoreV2:192"
  attr {
    key: "T"
    value {
      type: DT_FLOAT
    }
  }
  attr {
    key: "_class"
    value {
      list {
        s: "loc:@model/encoder/godeep/non-bt-2/non_bt/asym2/vert/weights/w"
      }
    }
  }
  attr {
    key: "use_locking"
    value {
      b: true
    }
  }
  attr {
    key: "validate_shape"
    value {
      b: true
    }
  }
}
node {
  name: "save_1/Assign_193"
  op: "Assign"
  input: "model/encoder/godeep/non-bt-2/non_bt/batchnorm/BatchNorm/beta"
  input: "save_1/RestoreV2:193"
  attr {
    key: "T"
    value {
      type: DT_FLOAT
    }
  }
  attr {
    key: "_class"
    value {
      list {
        s: "loc:@model/encoder/godeep/non-bt-2/non_bt/batchnorm/BatchNorm/beta"
      }
    }
  }
  attr {
    key: "use_locking"
    value {
      b: true
    }
  }
  attr {
    key: "validate_shape"
    value {
      b: true
    }
  }
}
node {
  name: "save_1/Assign_194"
  op: "Assign"
  input: "model/encoder/godeep/non-bt-2/non_bt/batchnorm/BatchNorm/gamma"
  input: "save_1/RestoreV2:194"
  attr {
    key: "T"
    value {
      type: DT_FLOAT
    }
  }
  attr {
    key: "_class"
    value {
      list {
        s: "loc:@model/encoder/godeep/non-bt-2/non_bt/batchnorm/BatchNorm/gamma"
      }
    }
  }
  attr {
    key: "use_locking"
    value {
      b: true
    }
  }
  attr {
    key: "validate_shape"
    value {
      b: true
    }
  }
}
node {
  name: "save_1/Assign_195"
  op: "Assign"
  input: "model/encoder/godeep/non-bt-2/non_bt/batchnorm/BatchNorm/moving_mean"
  input: "save_1/RestoreV2:195"
  attr {
    key: "T"
    value {
      type: DT_FLOAT
    }
  }
  attr {
    key: "_class"
    value {
      list {
        s: "loc:@model/encoder/godeep/non-bt-2/non_bt/batchnorm/BatchNorm/moving_mean"
      }
    }
  }
  attr {
    key: "use_locking"
    value {
      b: true
    }
  }
  attr {
    key: "validate_shape"
    value {
      b: true
    }
  }
}
node {
  name: "save_1/Assign_196"
  op: "Assign"
  input: "model/encoder/godeep/non-bt-2/non_bt/batchnorm/BatchNorm/moving_variance"
  input: "save_1/RestoreV2:196"
  attr {
    key: "T"
    value {
      type: DT_FLOAT
    }
  }
  attr {
    key: "_class"
    value {
      list {
        s: "loc:@model/encoder/godeep/non-bt-2/non_bt/batchnorm/BatchNorm/moving_variance"
      }
    }
  }
  attr {
    key: "use_locking"
    value {
      b: true
    }
  }
  attr {
    key: "validate_shape"
    value {
      b: true
    }
  }
}
node {
  name: "save_1/Assign_197"
  op: "Assign"
  input: "model/encoder/godeep/non-bt-3/non_bt/asym1/horiz/weights/w"
  input: "save_1/RestoreV2:197"
  attr {
    key: "T"
    value {
      type: DT_FLOAT
    }
  }
  attr {
    key: "_class"
    value {
      list {
        s: "loc:@model/encoder/godeep/non-bt-3/non_bt/asym1/horiz/weights/w"
      }
    }
  }
  attr {
    key: "use_locking"
    value {
      b: true
    }
  }
  attr {
    key: "validate_shape"
    value {
      b: true
    }
  }
}
node {
  name: "save_1/Assign_198"
  op: "Assign"
  input: "model/encoder/godeep/non-bt-3/non_bt/asym1/vert/weights/w"
  input: "save_1/RestoreV2:198"
  attr {
    key: "T"
    value {
      type: DT_FLOAT
    }
  }
  attr {
    key: "_class"
    value {
      list {
        s: "loc:@model/encoder/godeep/non-bt-3/non_bt/asym1/vert/weights/w"
      }
    }
  }
  attr {
    key: "use_locking"
    value {
      b: true
    }
  }
  attr {
    key: "validate_shape"
    value {
      b: true
    }
  }
}
node {
  name: "save_1/Assign_199"
  op: "Assign"
  input: "model/encoder/godeep/non-bt-3/non_bt/asym2/horiz/weights/w"
  input: "save_1/RestoreV2:199"
  attr {
    key: "T"
    value {
      type: DT_FLOAT
    }
  }
  attr {
    key: "_class"
    value {
      list {
        s: "loc:@model/encoder/godeep/non-bt-3/non_bt/asym2/horiz/weights/w"
      }
    }
  }
  attr {
    key: "use_locking"
    value {
      b: true
    }
  }
  attr {
    key: "validate_shape"
    value {
      b: true
    }
  }
}
node {
  name: "save_1/Assign_200"
  op: "Assign"
  input: "model/encoder/godeep/non-bt-3/non_bt/asym2/vert/weights/w"
  input: "save_1/RestoreV2:200"
  attr {
    key: "T"
    value {
      type: DT_FLOAT
    }
  }
  attr {
    key: "_class"
    value {
      list {
        s: "loc:@model/encoder/godeep/non-bt-3/non_bt/asym2/vert/weights/w"
      }
    }
  }
  attr {
    key: "use_locking"
    value {
      b: true
    }
  }
  attr {
    key: "validate_shape"
    value {
      b: true
    }
  }
}
node {
  name: "save_1/Assign_201"
  op: "Assign"
  input: "model/encoder/godeep/non-bt-3/non_bt/batchnorm/BatchNorm/beta"
  input: "save_1/RestoreV2:201"
  attr {
    key: "T"
    value {
      type: DT_FLOAT
    }
  }
  attr {
    key: "_class"
    value {
      list {
        s: "loc:@model/encoder/godeep/non-bt-3/non_bt/batchnorm/BatchNorm/beta"
      }
    }
  }
  attr {
    key: "use_locking"
    value {
      b: true
    }
  }
  attr {
    key: "validate_shape"
    value {
      b: true
    }
  }
}
node {
  name: "save_1/Assign_202"
  op: "Assign"
  input: "model/encoder/godeep/non-bt-3/non_bt/batchnorm/BatchNorm/gamma"
  input: "save_1/RestoreV2:202"
  attr {
    key: "T"
    value {
      type: DT_FLOAT
    }
  }
  attr {
    key: "_class"
    value {
      list {
        s: "loc:@model/encoder/godeep/non-bt-3/non_bt/batchnorm/BatchNorm/gamma"
      }
    }
  }
  attr {
    key: "use_locking"
    value {
      b: true
    }
  }
  attr {
    key: "validate_shape"
    value {
      b: true
    }
  }
}
node {
  name: "save_1/Assign_203"
  op: "Assign"
  input: "model/encoder/godeep/non-bt-3/non_bt/batchnorm/BatchNorm/moving_mean"
  input: "save_1/RestoreV2:203"
  attr {
    key: "T"
    value {
      type: DT_FLOAT
    }
  }
  attr {
    key: "_class"
    value {
      list {
        s: "loc:@model/encoder/godeep/non-bt-3/non_bt/batchnorm/BatchNorm/moving_mean"
      }
    }
  }
  attr {
    key: "use_locking"
    value {
      b: true
    }
  }
  attr {
    key: "validate_shape"
    value {
      b: true
    }
  }
}
node {
  name: "save_1/Assign_204"
  op: "Assign"
  input: "model/encoder/godeep/non-bt-3/non_bt/batchnorm/BatchNorm/moving_variance"
  input: "save_1/RestoreV2:204"
  attr {
    key: "T"
    value {
      type: DT_FLOAT
    }
  }
  attr {
    key: "_class"
    value {
      list {
        s: "loc:@model/encoder/godeep/non-bt-3/non_bt/batchnorm/BatchNorm/moving_variance"
      }
    }
  }
  attr {
    key: "use_locking"
    value {
      b: true
    }
  }
  attr {
    key: "validate_shape"
    value {
      b: true
    }
  }
}
node {
  name: "save_1/Assign_205"
  op: "Assign"
  input: "model/encoder/godeep/non-bt-4/non_bt/asym1/horiz/weights/w"
  input: "save_1/RestoreV2:205"
  attr {
    key: "T"
    value {
      type: DT_FLOAT
    }
  }
  attr {
    key: "_class"
    value {
      list {
        s: "loc:@model/encoder/godeep/non-bt-4/non_bt/asym1/horiz/weights/w"
      }
    }
  }
  attr {
    key: "use_locking"
    value {
      b: true
    }
  }
  attr {
    key: "validate_shape"
    value {
      b: true
    }
  }
}
node {
  name: "save_1/Assign_206"
  op: "Assign"
  input: "model/encoder/godeep/non-bt-4/non_bt/asym1/vert/weights/w"
  input: "save_1/RestoreV2:206"
  attr {
    key: "T"
    value {
      type: DT_FLOAT
    }
  }
  attr {
    key: "_class"
    value {
      list {
        s: "loc:@model/encoder/godeep/non-bt-4/non_bt/asym1/vert/weights/w"
      }
    }
  }
  attr {
    key: "use_locking"
    value {
      b: true
    }
  }
  attr {
    key: "validate_shape"
    value {
      b: true
    }
  }
}
node {
  name: "save_1/Assign_207"
  op: "Assign"
  input: "model/encoder/godeep/non-bt-4/non_bt/asym2/horiz/weights/w"
  input: "save_1/RestoreV2:207"
  attr {
    key: "T"
    value {
      type: DT_FLOAT
    }
  }
  attr {
    key: "_class"
    value {
      list {
        s: "loc:@model/encoder/godeep/non-bt-4/non_bt/asym2/horiz/weights/w"
      }
    }
  }
  attr {
    key: "use_locking"
    value {
      b: true
    }
  }
  attr {
    key: "validate_shape"
    value {
      b: true
    }
  }
}
node {
  name: "save_1/Assign_208"
  op: "Assign"
  input: "model/encoder/godeep/non-bt-4/non_bt/asym2/vert/weights/w"
  input: "save_1/RestoreV2:208"
  attr {
    key: "T"
    value {
      type: DT_FLOAT
    }
  }
  attr {
    key: "_class"
    value {
      list {
        s: "loc:@model/encoder/godeep/non-bt-4/non_bt/asym2/vert/weights/w"
      }
    }
  }
  attr {
    key: "use_locking"
    value {
      b: true
    }
  }
  attr {
    key: "validate_shape"
    value {
      b: true
    }
  }
}
node {
  name: "save_1/Assign_209"
  op: "Assign"
  input: "model/encoder/godeep/non-bt-4/non_bt/batchnorm/BatchNorm/beta"
  input: "save_1/RestoreV2:209"
  attr {
    key: "T"
    value {
      type: DT_FLOAT
    }
  }
  attr {
    key: "_class"
    value {
      list {
        s: "loc:@model/encoder/godeep/non-bt-4/non_bt/batchnorm/BatchNorm/beta"
      }
    }
  }
  attr {
    key: "use_locking"
    value {
      b: true
    }
  }
  attr {
    key: "validate_shape"
    value {
      b: true
    }
  }
}
node {
  name: "save_1/Assign_210"
  op: "Assign"
  input: "model/encoder/godeep/non-bt-4/non_bt/batchnorm/BatchNorm/gamma"
  input: "save_1/RestoreV2:210"
  attr {
    key: "T"
    value {
      type: DT_FLOAT
    }
  }
  attr {
    key: "_class"
    value {
      list {
        s: "loc:@model/encoder/godeep/non-bt-4/non_bt/batchnorm/BatchNorm/gamma"
      }
    }
  }
  attr {
    key: "use_locking"
    value {
      b: true
    }
  }
  attr {
    key: "validate_shape"
    value {
      b: true
    }
  }
}
node {
  name: "save_1/Assign_211"
  op: "Assign"
  input: "model/encoder/godeep/non-bt-4/non_bt/batchnorm/BatchNorm/moving_mean"
  input: "save_1/RestoreV2:211"
  attr {
    key: "T"
    value {
      type: DT_FLOAT
    }
  }
  attr {
    key: "_class"
    value {
      list {
        s: "loc:@model/encoder/godeep/non-bt-4/non_bt/batchnorm/BatchNorm/moving_mean"
      }
    }
  }
  attr {
    key: "use_locking"
    value {
      b: true
    }
  }
  attr {
    key: "validate_shape"
    value {
      b: true
    }
  }
}
node {
  name: "save_1/Assign_212"
  op: "Assign"
  input: "model/encoder/godeep/non-bt-4/non_bt/batchnorm/BatchNorm/moving_variance"
  input: "save_1/RestoreV2:212"
  attr {
    key: "T"
    value {
      type: DT_FLOAT
    }
  }
  attr {
    key: "_class"
    value {
      list {
        s: "loc:@model/encoder/godeep/non-bt-4/non_bt/batchnorm/BatchNorm/moving_variance"
      }
    }
  }
  attr {
    key: "use_locking"
    value {
      b: true
    }
  }
  attr {
    key: "validate_shape"
    value {
      b: true
    }
  }
}
node {
  name: "save_1/Assign_213"
  op: "Assign"
  input: "model/logits/biases/b"
  input: "save_1/RestoreV2:213"
  attr {
    key: "T"
    value {
      type: DT_FLOAT
    }
  }
  attr {
    key: "_class"
    value {
      list {
        s: "loc:@model/logits/biases/b"
      }
    }
  }
  attr {
    key: "use_locking"
    value {
      b: true
    }
  }
  attr {
    key: "validate_shape"
    value {
      b: true
    }
  }
}
node {
  name: "save_1/Assign_214"
  op: "Assign"
  input: "model/logits/weights/w"
  input: "save_1/RestoreV2:214"
  attr {
    key: "T"
    value {
      type: DT_FLOAT
    }
  }
  attr {
    key: "_class"
    value {
      list {
        s: "loc:@model/logits/weights/w"
      }
    }
  }
  attr {
    key: "use_locking"
    value {
      b: true
    }
  }
  attr {
    key: "validate_shape"
    value {
      b: true
    }
  }
}
node {
  name: "save_1/restore_all"
  op: "NoOp"
  input: "^save_1/Assign"
  input: "^save_1/Assign_1"
  input: "^save_1/Assign_2"
  input: "^save_1/Assign_3"
  input: "^save_1/Assign_4"
  input: "^save_1/Assign_5"
  input: "^save_1/Assign_6"
  input: "^save_1/Assign_7"
  input: "^save_1/Assign_8"
  input: "^save_1/Assign_9"
  input: "^save_1/Assign_10"
  input: "^save_1/Assign_11"
  input: "^save_1/Assign_12"
  input: "^save_1/Assign_13"
  input: "^save_1/Assign_14"
  input: "^save_1/Assign_15"
  input: "^save_1/Assign_16"
  input: "^save_1/Assign_17"
  input: "^save_1/Assign_18"
  input: "^save_1/Assign_19"
  input: "^save_1/Assign_20"
  input: "^save_1/Assign_21"
  input: "^save_1/Assign_22"
  input: "^save_1/Assign_23"
  input: "^save_1/Assign_24"
  input: "^save_1/Assign_25"
  input: "^save_1/Assign_26"
  input: "^save_1/Assign_27"
  input: "^save_1/Assign_28"
  input: "^save_1/Assign_29"
  input: "^save_1/Assign_30"
  input: "^save_1/Assign_31"
  input: "^save_1/Assign_32"
  input: "^save_1/Assign_33"
  input: "^save_1/Assign_34"
  input: "^save_1/Assign_35"
  input: "^save_1/Assign_36"
  input: "^save_1/Assign_37"
  input: "^save_1/Assign_38"
  input: "^save_1/Assign_39"
  input: "^save_1/Assign_40"
  input: "^save_1/Assign_41"
  input: "^save_1/Assign_42"
  input: "^save_1/Assign_43"
  input: "^save_1/Assign_44"
  input: "^save_1/Assign_45"
  input: "^save_1/Assign_46"
  input: "^save_1/Assign_47"
  input: "^save_1/Assign_48"
  input: "^save_1/Assign_49"
  input: "^save_1/Assign_50"
  input: "^save_1/Assign_51"
  input: "^save_1/Assign_52"
  input: "^save_1/Assign_53"
  input: "^save_1/Assign_54"
  input: "^save_1/Assign_55"
  input: "^save_1/Assign_56"
  input: "^save_1/Assign_57"
  input: "^save_1/Assign_58"
  input: "^save_1/Assign_59"
  input: "^save_1/Assign_60"
  input: "^save_1/Assign_61"
  input: "^save_1/Assign_62"
  input: "^save_1/Assign_63"
  input: "^save_1/Assign_64"
  input: "^save_1/Assign_65"
  input: "^save_1/Assign_66"
  input: "^save_1/Assign_67"
  input: "^save_1/Assign_68"
  input: "^save_1/Assign_69"
  input: "^save_1/Assign_70"
  input: "^save_1/Assign_71"
  input: "^save_1/Assign_72"
  input: "^save_1/Assign_73"
  input: "^save_1/Assign_74"
  input: "^save_1/Assign_75"
  input: "^save_1/Assign_76"
  input: "^save_1/Assign_77"
  input: "^save_1/Assign_78"
  input: "^save_1/Assign_79"
  input: "^save_1/Assign_80"
  input: "^save_1/Assign_81"
  input: "^save_1/Assign_82"
  input: "^save_1/Assign_83"
  input: "^save_1/Assign_84"
  input: "^save_1/Assign_85"
  input: "^save_1/Assign_86"
  input: "^save_1/Assign_87"
  input: "^save_1/Assign_88"
  input: "^save_1/Assign_89"
  input: "^save_1/Assign_90"
  input: "^save_1/Assign_91"
  input: "^save_1/Assign_92"
  input: "^save_1/Assign_93"
  input: "^save_1/Assign_94"
  input: "^save_1/Assign_95"
  input: "^save_1/Assign_96"
  input: "^save_1/Assign_97"
  input: "^save_1/Assign_98"
  input: "^save_1/Assign_99"
  input: "^save_1/Assign_100"
  input: "^save_1/Assign_101"
  input: "^save_1/Assign_102"
  input: "^save_1/Assign_103"
  input: "^save_1/Assign_104"
  input: "^save_1/Assign_105"
  input: "^save_1/Assign_106"
  input: "^save_1/Assign_107"
  input: "^save_1/Assign_108"
  input: "^save_1/Assign_109"
  input: "^save_1/Assign_110"
  input: "^save_1/Assign_111"
  input: "^save_1/Assign_112"
  input: "^save_1/Assign_113"
  input: "^save_1/Assign_114"
  input: "^save_1/Assign_115"
  input: "^save_1/Assign_116"
  input: "^save_1/Assign_117"
  input: "^save_1/Assign_118"
  input: "^save_1/Assign_119"
  input: "^save_1/Assign_120"
  input: "^save_1/Assign_121"
  input: "^save_1/Assign_122"
  input: "^save_1/Assign_123"
  input: "^save_1/Assign_124"
  input: "^save_1/Assign_125"
  input: "^save_1/Assign_126"
  input: "^save_1/Assign_127"
  input: "^save_1/Assign_128"
  input: "^save_1/Assign_129"
  input: "^save_1/Assign_130"
  input: "^save_1/Assign_131"
  input: "^save_1/Assign_132"
  input: "^save_1/Assign_133"
  input: "^save_1/Assign_134"
  input: "^save_1/Assign_135"
  input: "^save_1/Assign_136"
  input: "^save_1/Assign_137"
  input: "^save_1/Assign_138"
  input: "^save_1/Assign_139"
  input: "^save_1/Assign_140"
  input: "^save_1/Assign_141"
  input: "^save_1/Assign_142"
  input: "^save_1/Assign_143"
  input: "^save_1/Assign_144"
  input: "^save_1/Assign_145"
  input: "^save_1/Assign_146"
  input: "^save_1/Assign_147"
  input: "^save_1/Assign_148"
  input: "^save_1/Assign_149"
  input: "^save_1/Assign_150"
  input: "^save_1/Assign_151"
  input: "^save_1/Assign_152"
  input: "^save_1/Assign_153"
  input: "^save_1/Assign_154"
  input: "^save_1/Assign_155"
  input: "^save_1/Assign_156"
  input: "^save_1/Assign_157"
  input: "^save_1/Assign_158"
  input: "^save_1/Assign_159"
  input: "^save_1/Assign_160"
  input: "^save_1/Assign_161"
  input: "^save_1/Assign_162"
  input: "^save_1/Assign_163"
  input: "^save_1/Assign_164"
  input: "^save_1/Assign_165"
  input: "^save_1/Assign_166"
  input: "^save_1/Assign_167"
  input: "^save_1/Assign_168"
  input: "^save_1/Assign_169"
  input: "^save_1/Assign_170"
  input: "^save_1/Assign_171"
  input: "^save_1/Assign_172"
  input: "^save_1/Assign_173"
  input: "^save_1/Assign_174"
  input: "^save_1/Assign_175"
  input: "^save_1/Assign_176"
  input: "^save_1/Assign_177"
  input: "^save_1/Assign_178"
  input: "^save_1/Assign_179"
  input: "^save_1/Assign_180"
  input: "^save_1/Assign_181"
  input: "^save_1/Assign_182"
  input: "^save_1/Assign_183"
  input: "^save_1/Assign_184"
  input: "^save_1/Assign_185"
  input: "^save_1/Assign_186"
  input: "^save_1/Assign_187"
  input: "^save_1/Assign_188"
  input: "^save_1/Assign_189"
  input: "^save_1/Assign_190"
  input: "^save_1/Assign_191"
  input: "^save_1/Assign_192"
  input: "^save_1/Assign_193"
  input: "^save_1/Assign_194"
  input: "^save_1/Assign_195"
  input: "^save_1/Assign_196"
  input: "^save_1/Assign_197"
  input: "^save_1/Assign_198"
  input: "^save_1/Assign_199"
  input: "^save_1/Assign_200"
  input: "^save_1/Assign_201"
  input: "^save_1/Assign_202"
  input: "^save_1/Assign_203"
  input: "^save_1/Assign_204"
  input: "^save_1/Assign_205"
  input: "^save_1/Assign_206"
  input: "^save_1/Assign_207"
  input: "^save_1/Assign_208"
  input: "^save_1/Assign_209"
  input: "^save_1/Assign_210"
  input: "^save_1/Assign_211"
  input: "^save_1/Assign_212"
  input: "^save_1/Assign_213"
  input: "^save_1/Assign_214"
}
versions {
  producer: 26
}
